{"format": "graph-model", "generatedBy": "2.4.1", "convertedBy": "TensorFlow.js Converter v3.4.0", "signature": {"outputs": {"final_result": {"name": "final_result"}}}, "modelTopology": {"node": [{"name": "mixed_10/join/concat_dim", "op": "Const", "attr": {"value": {"tensor": {"dtype": "DT_INT32", "tensorShape": {}}}, "dtype": {"type": "DT_INT32"}}}, {"name": "mixed_9/join/concat_dim", "op": "Const", "attr": {"value": {"tensor": {"dtype": "DT_INT32", "tensorShape": {}}}, "dtype": {"type": "DT_INT32"}}}, {"name": "mixed_8/join/concat_dim", "op": "Const", "attr": {"value": {"tensor": {"dtype": "DT_INT32", "tensorShape": {}}}, "dtype": {"type": "DT_INT32"}}}, {"name": "mixed_7/join/concat_dim", "op": "Const", "attr": {"value": {"tensor": {"dtype": "DT_INT32", "tensorShape": {}}}, "dtype": {"type": "DT_INT32"}}}, {"name": "mixed_6/join/concat_dim", "op": "Const", "attr": {"value": {"tensor": {"dtype": "DT_INT32", "tensorShape": {}}}, "dtype": {"type": "DT_INT32"}}}, {"name": "mixed_5/join/concat_dim", "op": "Const", "attr": {"value": {"tensor": {"dtype": "DT_INT32", "tensorShape": {}}}, "dtype": {"type": "DT_INT32"}}}, {"name": "mixed_4/join/concat_dim", "op": "Const", "attr": {"value": {"tensor": {"dtype": "DT_INT32", "tensorShape": {}}}, "dtype": {"type": "DT_INT32"}}}, {"name": "mixed_3/join/concat_dim", "op": "Const", "attr": {"value": {"tensor": {"dtype": "DT_INT32", "tensorShape": {}}}, "dtype": {"type": "DT_INT32"}}}, {"name": "mixed_2/join/concat_dim", "op": "Const", "attr": {"value": {"tensor": {"dtype": "DT_INT32", "tensorShape": {}}}, "dtype": {"type": "DT_INT32"}}}, {"name": "mixed_1/join/concat_dim", "op": "Const", "attr": {"value": {"tensor": {"dtype": "DT_INT32", "tensorShape": {}}}, "dtype": {"type": "DT_INT32"}}}, {"name": "mixed/join/concat_dim", "op": "Const", "attr": {"value": {"tensor": {"dtype": "DT_INT32", "tensorShape": {}}}, "dtype": {"type": "DT_INT32"}}}, {"name": "DecodeJpeg/contents", "op": "Const", "attr": {"value": {"tensor": {"dtype": "DT_STRING", "tensorShape": {}}}, "dtype": {"type": "DT_STRING"}}}, {"name": "ExpandDims/dim", "op": "Const", "attr": {"value": {"tensor": {"dtype": "DT_INT32", "tensorShape": {"dim": [{"size": "1"}]}}}, "dtype": {"type": "DT_INT32"}}}, {"name": "ResizeBilinear/size", "op": "Const", "attr": {"value": {"tensor": {"dtype": "DT_INT32", "tensorShape": {"dim": [{"size": "2"}]}}}, "dtype": {"type": "DT_INT32"}}}, {"name": "Sub/y", "op": "Const", "attr": {"value": {"tensor": {"dtype": "DT_FLOAT", "tensorShape": {}}}, "dtype": {"type": "DT_FLOAT"}}}, {"name": "pool_3/_reshape/shape", "op": "Const", "attr": {"value": {"tensor": {"dtype": "DT_INT32", "tensorShape": {"dim": [{"size": "2"}]}}}, "dtype": {"type": "DT_INT32"}}}, {"name": "final_training_ops/weights/final_weights", "op": "Const", "attr": {"value": {"tensor": {"dtype": "DT_FLOAT", "tensorShape": {"dim": [{"size": "2048"}, {"size": "2"}]}}}, "dtype": {"type": "DT_FLOAT"}}}, {"name": "final_training_ops/biases/final_biases", "op": "Const", "attr": {"value": {"tensor": {"dtype": "DT_FLOAT", "tensorShape": {"dim": [{"size": "2"}]}}}, "dtype": {"type": "DT_FLOAT"}}}, {"name": "conv/Conv2D_weights", "op": "Const", "attr": {"value": {"tensor": {"dtype": "DT_FLOAT", "tensorShape": {"dim": [{"size": "3"}, {"size": "3"}, {"size": "3"}, {"size": "32"}]}}}, "dtype": {"type": "DT_FLOAT"}}}, {"name": "conv/Conv2D_bn_offset", "op": "Const", "attr": {"value": {"tensor": {"dtype": "DT_FLOAT", "tensorShape": {"dim": [{"size": "32"}]}}}, "dtype": {"type": "DT_FLOAT"}}}, {"name": "mixed_7/tower_1/conv_1/Conv2D_bn_offset", "op": "Const", "attr": {"value": {"tensor": {"dtype": "DT_FLOAT", "tensorShape": {"dim": [{"size": "192"}]}}}, "dtype": {"type": "DT_FLOAT"}}}, {"name": "conv_1/Conv2D_weights", "op": "Const", "attr": {"value": {"tensor": {"dtype": "DT_FLOAT", "tensorShape": {"dim": [{"size": "3"}, {"size": "3"}, {"size": "32"}, {"size": "32"}]}}}, "dtype": {"type": "DT_FLOAT"}}}, {"name": "mixed_10/tower/conv/Conv2D_weights", "op": "Const", "attr": {"value": {"tensor": {"dtype": "DT_FLOAT", "tensorShape": {"dim": [{"size": "1"}, {"size": "1"}, {"size": "2048"}, {"size": "384"}]}}}, "dtype": {"type": "DT_FLOAT"}}}, {"name": "conv_1/Conv2D_bn_offset", "op": "Const", "attr": {"value": {"tensor": {"dtype": "DT_FLOAT", "tensorShape": {"dim": [{"size": "32"}]}}}, "dtype": {"type": "DT_FLOAT"}}}, {"name": "conv_2/Conv2D_weights", "op": "Const", "attr": {"value": {"tensor": {"dtype": "DT_FLOAT", "tensorShape": {"dim": [{"size": "3"}, {"size": "3"}, {"size": "32"}, {"size": "64"}]}}}, "dtype": {"type": "DT_FLOAT"}}}, {"name": "mixed_7/tower/conv_2/Conv2D_weights", "op": "Const", "attr": {"value": {"tensor": {"dtype": "DT_FLOAT", "tensorShape": {"dim": [{"size": "7"}, {"size": "1"}, {"size": "192"}, {"size": "192"}]}}}, "dtype": {"type": "DT_FLOAT"}}}, {"name": "conv_2/Conv2D_bn_offset", "op": "Const", "attr": {"value": {"tensor": {"dtype": "DT_FLOAT", "tensorShape": {"dim": [{"size": "64"}]}}}, "dtype": {"type": "DT_FLOAT"}}}, {"name": "conv_3/Conv2D_weights", "op": "Const", "attr": {"value": {"tensor": {"dtype": "DT_FLOAT", "tensorShape": {"dim": [{"size": "1"}, {"size": "1"}, {"size": "64"}, {"size": "80"}]}}}, "dtype": {"type": "DT_FLOAT"}}}, {"name": "conv_3/Conv2D_bn_offset", "op": "Const", "attr": {"value": {"tensor": {"dtype": "DT_FLOAT", "tensorShape": {"dim": [{"size": "80"}]}}}, "dtype": {"type": "DT_FLOAT"}}}, {"name": "mixed_7/tower/conv_2/Conv2D_bn_offset", "op": "Const", "attr": {"value": {"tensor": {"dtype": "DT_FLOAT", "tensorShape": {"dim": [{"size": "192"}]}}}, "dtype": {"type": "DT_FLOAT"}}}, {"name": "conv_4/Conv2D_weights", "op": "Const", "attr": {"value": {"tensor": {"dtype": "DT_FLOAT", "tensorShape": {"dim": [{"size": "3"}, {"size": "3"}, {"size": "80"}, {"size": "192"}]}}}, "dtype": {"type": "DT_FLOAT"}}}, {"name": "conv_4/Conv2D_bn_offset", "op": "Const", "attr": {"value": {"tensor": {"dtype": "DT_FLOAT", "tensorShape": {"dim": [{"size": "192"}]}}}, "dtype": {"type": "DT_FLOAT"}}}, {"name": "mixed/conv/Conv2D_weights", "op": "Const", "attr": {"value": {"tensor": {"dtype": "DT_FLOAT", "tensorShape": {"dim": [{"size": "1"}, {"size": "1"}, {"size": "192"}, {"size": "64"}]}}}, "dtype": {"type": "DT_FLOAT"}}}, {"name": "mixed_7/tower_1/conv_2/Conv2D_weights", "op": "Const", "attr": {"value": {"tensor": {"dtype": "DT_FLOAT", "tensorShape": {"dim": [{"size": "1"}, {"size": "7"}, {"size": "192"}, {"size": "192"}]}}}, "dtype": {"type": "DT_FLOAT"}}}, {"name": "mixed/conv/Conv2D_bn_offset", "op": "Const", "attr": {"value": {"tensor": {"dtype": "DT_FLOAT", "tensorShape": {"dim": [{"size": "64"}]}}}, "dtype": {"type": "DT_FLOAT"}}}, {"name": "mixed/tower/conv/Conv2D_weights", "op": "Const", "attr": {"value": {"tensor": {"dtype": "DT_FLOAT", "tensorShape": {"dim": [{"size": "1"}, {"size": "1"}, {"size": "192"}, {"size": "48"}]}}}, "dtype": {"type": "DT_FLOAT"}}}, {"name": "mixed_10/tower/conv/Conv2D_bn_offset", "op": "Const", "attr": {"value": {"tensor": {"dtype": "DT_FLOAT", "tensorShape": {"dim": [{"size": "384"}]}}}, "dtype": {"type": "DT_FLOAT"}}}, {"name": "mixed/tower/conv/Conv2D_bn_offset", "op": "Const", "attr": {"value": {"tensor": {"dtype": "DT_FLOAT", "tensorShape": {"dim": [{"size": "48"}]}}}, "dtype": {"type": "DT_FLOAT"}}}, {"name": "mixed_7/tower_1/conv_2/Conv2D_bn_offset", "op": "Const", "attr": {"value": {"tensor": {"dtype": "DT_FLOAT", "tensorShape": {"dim": [{"size": "192"}]}}}, "dtype": {"type": "DT_FLOAT"}}}, {"name": "mixed/tower_1/conv/Conv2D_weights", "op": "Const", "attr": {"value": {"tensor": {"dtype": "DT_FLOAT", "tensorShape": {"dim": [{"size": "1"}, {"size": "1"}, {"size": "192"}, {"size": "64"}]}}}, "dtype": {"type": "DT_FLOAT"}}}, {"name": "mixed_10/tower_1/mixed/conv_1/Conv2D_bn_offset", "op": "Const", "attr": {"value": {"tensor": {"dtype": "DT_FLOAT", "tensorShape": {"dim": [{"size": "384"}]}}}, "dtype": {"type": "DT_FLOAT"}}}, {"name": "mixed/tower_1/conv/Conv2D_bn_offset", "op": "Const", "attr": {"value": {"tensor": {"dtype": "DT_FLOAT", "tensorShape": {"dim": [{"size": "64"}]}}}, "dtype": {"type": "DT_FLOAT"}}}, {"name": "mixed/tower_2/conv/Conv2D_weights", "op": "Const", "attr": {"value": {"tensor": {"dtype": "DT_FLOAT", "tensorShape": {"dim": [{"size": "1"}, {"size": "1"}, {"size": "192"}, {"size": "32"}]}}}, "dtype": {"type": "DT_FLOAT"}}}, {"name": "mixed_7/tower_1/conv_3/Conv2D_weights", "op": "Const", "attr": {"value": {"tensor": {"dtype": "DT_FLOAT", "tensorShape": {"dim": [{"size": "7"}, {"size": "1"}, {"size": "192"}, {"size": "192"}]}}}, "dtype": {"type": "DT_FLOAT"}}}, {"name": "mixed/tower_2/conv/Conv2D_bn_offset", "op": "Const", "attr": {"value": {"tensor": {"dtype": "DT_FLOAT", "tensorShape": {"dim": [{"size": "32"}]}}}, "dtype": {"type": "DT_FLOAT"}}}, {"name": "mixed/tower/conv_1/Conv2D_weights", "op": "Const", "attr": {"value": {"tensor": {"dtype": "DT_FLOAT", "tensorShape": {"dim": [{"size": "5"}, {"size": "5"}, {"size": "48"}, {"size": "64"}]}}}, "dtype": {"type": "DT_FLOAT"}}}, {"name": "mixed/tower/conv_1/Conv2D_bn_offset", "op": "Const", "attr": {"value": {"tensor": {"dtype": "DT_FLOAT", "tensorShape": {"dim": [{"size": "64"}]}}}, "dtype": {"type": "DT_FLOAT"}}}, {"name": "mixed/tower_1/conv_1/Conv2D_weights", "op": "Const", "attr": {"value": {"tensor": {"dtype": "DT_FLOAT", "tensorShape": {"dim": [{"size": "3"}, {"size": "3"}, {"size": "64"}, {"size": "96"}]}}}, "dtype": {"type": "DT_FLOAT"}}}, {"name": "mixed_7/tower_1/conv_3/Conv2D_bn_offset", "op": "Const", "attr": {"value": {"tensor": {"dtype": "DT_FLOAT", "tensorShape": {"dim": [{"size": "192"}]}}}, "dtype": {"type": "DT_FLOAT"}}}, {"name": "mixed/tower_1/conv_1/Conv2D_bn_offset", "op": "Const", "attr": {"value": {"tensor": {"dtype": "DT_FLOAT", "tensorShape": {"dim": [{"size": "96"}]}}}, "dtype": {"type": "DT_FLOAT"}}}, {"name": "mixed_10/tower_1/conv/Conv2D_weights", "op": "Const", "attr": {"value": {"tensor": {"dtype": "DT_FLOAT", "tensorShape": {"dim": [{"size": "1"}, {"size": "1"}, {"size": "2048"}, {"size": "448"}]}}}, "dtype": {"type": "DT_FLOAT"}}}, {"name": "mixed/tower_1/conv_2/Conv2D_weights", "op": "Const", "attr": {"value": {"tensor": {"dtype": "DT_FLOAT", "tensorShape": {"dim": [{"size": "3"}, {"size": "3"}, {"size": "96"}, {"size": "96"}]}}}, "dtype": {"type": "DT_FLOAT"}}}, {"name": "mixed/tower_1/conv_2/Conv2D_bn_offset", "op": "Const", "attr": {"value": {"tensor": {"dtype": "DT_FLOAT", "tensorShape": {"dim": [{"size": "96"}]}}}, "dtype": {"type": "DT_FLOAT"}}}, {"name": "mixed_1/conv/Conv2D_weights", "op": "Const", "attr": {"value": {"tensor": {"dtype": "DT_FLOAT", "tensorShape": {"dim": [{"size": "1"}, {"size": "1"}, {"size": "256"}, {"size": "64"}]}}}, "dtype": {"type": "DT_FLOAT"}}}, {"name": "mixed_7/tower_1/conv_4/Conv2D_weights", "op": "Const", "attr": {"value": {"tensor": {"dtype": "DT_FLOAT", "tensorShape": {"dim": [{"size": "1"}, {"size": "7"}, {"size": "192"}, {"size": "192"}]}}}, "dtype": {"type": "DT_FLOAT"}}}, {"name": "mixed_1/conv/Conv2D_bn_offset", "op": "Const", "attr": {"value": {"tensor": {"dtype": "DT_FLOAT", "tensorShape": {"dim": [{"size": "64"}]}}}, "dtype": {"type": "DT_FLOAT"}}}, {"name": "mixed_1/tower/conv/Conv2D_weights", "op": "Const", "attr": {"value": {"tensor": {"dtype": "DT_FLOAT", "tensorShape": {"dim": [{"size": "1"}, {"size": "1"}, {"size": "256"}, {"size": "48"}]}}}, "dtype": {"type": "DT_FLOAT"}}}, {"name": "mixed_1/tower/conv/Conv2D_bn_offset", "op": "Const", "attr": {"value": {"tensor": {"dtype": "DT_FLOAT", "tensorShape": {"dim": [{"size": "48"}]}}}, "dtype": {"type": "DT_FLOAT"}}}, {"name": "mixed_7/tower_1/conv_4/Conv2D_bn_offset", "op": "Const", "attr": {"value": {"tensor": {"dtype": "DT_FLOAT", "tensorShape": {"dim": [{"size": "192"}]}}}, "dtype": {"type": "DT_FLOAT"}}}, {"name": "mixed_1/tower_1/conv/Conv2D_weights", "op": "Const", "attr": {"value": {"tensor": {"dtype": "DT_FLOAT", "tensorShape": {"dim": [{"size": "1"}, {"size": "1"}, {"size": "256"}, {"size": "64"}]}}}, "dtype": {"type": "DT_FLOAT"}}}, {"name": "mixed_1/tower_1/conv/Conv2D_bn_offset", "op": "Const", "attr": {"value": {"tensor": {"dtype": "DT_FLOAT", "tensorShape": {"dim": [{"size": "64"}]}}}, "dtype": {"type": "DT_FLOAT"}}}, {"name": "mixed_1/tower_2/conv/Conv2D_weights", "op": "Const", "attr": {"value": {"tensor": {"dtype": "DT_FLOAT", "tensorShape": {"dim": [{"size": "1"}, {"size": "1"}, {"size": "256"}, {"size": "64"}]}}}, "dtype": {"type": "DT_FLOAT"}}}, {"name": "mixed_1/tower_2/conv/Conv2D_bn_offset", "op": "Const", "attr": {"value": {"tensor": {"dtype": "DT_FLOAT", "tensorShape": {"dim": [{"size": "64"}]}}}, "dtype": {"type": "DT_FLOAT"}}}, {"name": "mixed_1/tower/conv_1/Conv2D_weights", "op": "Const", "attr": {"value": {"tensor": {"dtype": "DT_FLOAT", "tensorShape": {"dim": [{"size": "5"}, {"size": "5"}, {"size": "48"}, {"size": "64"}]}}}, "dtype": {"type": "DT_FLOAT"}}}, {"name": "mixed_1/tower/conv_1/Conv2D_bn_offset", "op": "Const", "attr": {"dtype": {"type": "DT_FLOAT"}, "value": {"tensor": {"dtype": "DT_FLOAT", "tensorShape": {"dim": [{"size": "64"}]}}}}}, {"name": "mixed_1/tower_1/conv_1/Conv2D_weights", "op": "Const", "attr": {"value": {"tensor": {"dtype": "DT_FLOAT", "tensorShape": {"dim": [{"size": "3"}, {"size": "3"}, {"size": "64"}, {"size": "96"}]}}}, "dtype": {"type": "DT_FLOAT"}}}, {"name": "mixed_8/tower/conv/Conv2D_weights", "op": "Const", "attr": {"value": {"tensor": {"dtype": "DT_FLOAT", "tensorShape": {"dim": [{"size": "1"}, {"size": "1"}, {"size": "768"}, {"size": "192"}]}}}, "dtype": {"type": "DT_FLOAT"}}}, {"name": "mixed_1/tower_1/conv_1/Conv2D_bn_offset", "op": "Const", "attr": {"value": {"tensor": {"dtype": "DT_FLOAT", "tensorShape": {"dim": [{"size": "96"}]}}}, "dtype": {"type": "DT_FLOAT"}}}, {"name": "mixed_10/tower_1/conv/Conv2D_bn_offset", "op": "Const", "attr": {"value": {"tensor": {"dtype": "DT_FLOAT", "tensorShape": {"dim": [{"size": "448"}]}}}, "dtype": {"type": "DT_FLOAT"}}}, {"name": "mixed_1/tower_1/conv_2/Conv2D_weights", "op": "Const", "attr": {"value": {"tensor": {"dtype": "DT_FLOAT", "tensorShape": {"dim": [{"size": "3"}, {"size": "3"}, {"size": "96"}, {"size": "96"}]}}}, "dtype": {"type": "DT_FLOAT"}}}, {"name": "mixed_8/tower/conv/Conv2D_bn_offset", "op": "Const", "attr": {"dtype": {"type": "DT_FLOAT"}, "value": {"tensor": {"dtype": "DT_FLOAT", "tensorShape": {"dim": [{"size": "192"}]}}}}}, {"name": "mixed_1/tower_1/conv_2/Conv2D_bn_offset", "op": "Const", "attr": {"dtype": {"type": "DT_FLOAT"}, "value": {"tensor": {"dtype": "DT_FLOAT", "tensorShape": {"dim": [{"size": "96"}]}}}}}, {"name": "mixed_2/conv/Conv2D_weights", "op": "Const", "attr": {"value": {"tensor": {"dtype": "DT_FLOAT", "tensorShape": {"dim": [{"size": "1"}, {"size": "1"}, {"size": "288"}, {"size": "64"}]}}}, "dtype": {"type": "DT_FLOAT"}}}, {"name": "mixed_2/conv/Conv2D_bn_offset", "op": "Const", "attr": {"value": {"tensor": {"dtype": "DT_FLOAT", "tensorShape": {"dim": [{"size": "64"}]}}}, "dtype": {"type": "DT_FLOAT"}}}, {"name": "mixed_2/tower/conv/Conv2D_weights", "op": "Const", "attr": {"value": {"tensor": {"dtype": "DT_FLOAT", "tensorShape": {"dim": [{"size": "1"}, {"size": "1"}, {"size": "288"}, {"size": "48"}]}}}, "dtype": {"type": "DT_FLOAT"}}}, {"name": "mixed_2/tower/conv/Conv2D_bn_offset", "op": "Const", "attr": {"dtype": {"type": "DT_FLOAT"}, "value": {"tensor": {"dtype": "DT_FLOAT", "tensorShape": {"dim": [{"size": "48"}]}}}}}, {"name": "mixed_8/tower_1/conv/Conv2D_weights", "op": "Const", "attr": {"value": {"tensor": {"dtype": "DT_FLOAT", "tensorShape": {"dim": [{"size": "1"}, {"size": "1"}, {"size": "768"}, {"size": "192"}]}}}, "dtype": {"type": "DT_FLOAT"}}}, {"name": "mixed_2/tower_1/conv/Conv2D_weights", "op": "Const", "attr": {"value": {"tensor": {"dtype": "DT_FLOAT", "tensorShape": {"dim": [{"size": "1"}, {"size": "1"}, {"size": "288"}, {"size": "64"}]}}}, "dtype": {"type": "DT_FLOAT"}}}, {"name": "mixed_2/tower_1/conv/Conv2D_bn_offset", "op": "Const", "attr": {"value": {"tensor": {"dtype": "DT_FLOAT", "tensorShape": {"dim": [{"size": "64"}]}}}, "dtype": {"type": "DT_FLOAT"}}}, {"name": "mixed_8/tower_1/conv/Conv2D_bn_offset", "op": "Const", "attr": {"dtype": {"type": "DT_FLOAT"}, "value": {"tensor": {"dtype": "DT_FLOAT", "tensorShape": {"dim": [{"size": "192"}]}}}}}, {"name": "mixed_2/tower_2/conv/Conv2D_weights", "op": "Const", "attr": {"dtype": {"type": "DT_FLOAT"}, "value": {"tensor": {"dtype": "DT_FLOAT", "tensorShape": {"dim": [{"size": "1"}, {"size": "1"}, {"size": "288"}, {"size": "64"}]}}}}}, {"name": "mixed_10/tower_2/conv/Conv2D_weights", "op": "Const", "attr": {"dtype": {"type": "DT_FLOAT"}, "value": {"tensor": {"dtype": "DT_FLOAT", "tensorShape": {"dim": [{"size": "1"}, {"size": "1"}, {"size": "2048"}, {"size": "192"}]}}}}}, {"name": "mixed_2/tower_2/conv/Conv2D_bn_offset", "op": "Const", "attr": {"dtype": {"type": "DT_FLOAT"}, "value": {"tensor": {"dtype": "DT_FLOAT", "tensorShape": {"dim": [{"size": "64"}]}}}}}, {"name": "mixed_2/tower/conv_1/Conv2D_weights", "op": "Const", "attr": {"dtype": {"type": "DT_FLOAT"}, "value": {"tensor": {"dtype": "DT_FLOAT", "tensorShape": {"dim": [{"size": "5"}, {"size": "5"}, {"size": "48"}, {"size": "64"}]}}}}}, {"name": "mixed_2/tower/conv_1/Conv2D_bn_offset", "op": "Const", "attr": {"value": {"tensor": {"dtype": "DT_FLOAT", "tensorShape": {"dim": [{"size": "64"}]}}}, "dtype": {"type": "DT_FLOAT"}}}, {"name": "mixed_2/tower_1/conv_1/Conv2D_weights", "op": "Const", "attr": {"value": {"tensor": {"dtype": "DT_FLOAT", "tensorShape": {"dim": [{"size": "3"}, {"size": "3"}, {"size": "64"}, {"size": "96"}]}}}, "dtype": {"type": "DT_FLOAT"}}}, {"name": "mixed_8/tower/conv_1/Conv2D_weights", "op": "Const", "attr": {"dtype": {"type": "DT_FLOAT"}, "value": {"tensor": {"dtype": "DT_FLOAT", "tensorShape": {"dim": [{"size": "3"}, {"size": "3"}, {"size": "192"}, {"size": "320"}]}}}}}, {"name": "mixed_2/tower_1/conv_1/Conv2D_bn_offset", "op": "Const", "attr": {"value": {"tensor": {"dtype": "DT_FLOAT", "tensorShape": {"dim": [{"size": "96"}]}}}, "dtype": {"type": "DT_FLOAT"}}}, {"name": "mixed_2/tower_1/conv_2/Conv2D_weights", "op": "Const", "attr": {"value": {"tensor": {"dtype": "DT_FLOAT", "tensorShape": {"dim": [{"size": "3"}, {"size": "3"}, {"size": "96"}, {"size": "96"}]}}}, "dtype": {"type": "DT_FLOAT"}}}, {"name": "mixed_8/tower/conv_1/Conv2D_bn_offset", "op": "Const", "attr": {"value": {"tensor": {"dtype": "DT_FLOAT", "tensorShape": {"dim": [{"size": "320"}]}}}, "dtype": {"type": "DT_FLOAT"}}}, {"name": "mixed_2/tower_1/conv_2/Conv2D_bn_offset", "op": "Const", "attr": {"value": {"tensor": {"dtype": "DT_FLOAT", "tensorShape": {"dim": [{"size": "96"}]}}}, "dtype": {"type": "DT_FLOAT"}}}, {"name": "mixed_3/conv/Conv2D_weights", "op": "Const", "attr": {"value": {"tensor": {"dtype": "DT_FLOAT", "tensorShape": {"dim": [{"size": "3"}, {"size": "3"}, {"size": "288"}, {"size": "384"}]}}}, "dtype": {"type": "DT_FLOAT"}}}, {"name": "mixed_10/tower_2/conv/Conv2D_bn_offset", "op": "Const", "attr": {"dtype": {"type": "DT_FLOAT"}, "value": {"tensor": {"dtype": "DT_FLOAT", "tensorShape": {"dim": [{"size": "192"}]}}}}}, {"name": "mixed_3/conv/Conv2D_bn_offset", "op": "Const", "attr": {"dtype": {"type": "DT_FLOAT"}, "value": {"tensor": {"dtype": "DT_FLOAT", "tensorShape": {"dim": [{"size": "384"}]}}}}}, {"name": "mixed_3/tower/conv/Conv2D_weights", "op": "Const", "attr": {"value": {"tensor": {"dtype": "DT_FLOAT", "tensorShape": {"dim": [{"size": "1"}, {"size": "1"}, {"size": "288"}, {"size": "64"}]}}}, "dtype": {"type": "DT_FLOAT"}}}, {"name": "mixed_8/tower_1/conv_1/Conv2D_weights", "op": "Const", "attr": {"value": {"tensor": {"dtype": "DT_FLOAT", "tensorShape": {"dim": [{"size": "1"}, {"size": "7"}, {"size": "192"}, {"size": "192"}]}}}, "dtype": {"type": "DT_FLOAT"}}}, {"name": "mixed_3/tower/conv/Conv2D_bn_offset", "op": "Const", "attr": {"value": {"tensor": {"dtype": "DT_FLOAT", "tensorShape": {"dim": [{"size": "64"}]}}}, "dtype": {"type": "DT_FLOAT"}}}, {"name": "mixed_3/tower/conv_1/Conv2D_weights", "op": "Const", "attr": {"dtype": {"type": "DT_FLOAT"}, "value": {"tensor": {"dtype": "DT_FLOAT", "tensorShape": {"dim": [{"size": "3"}, {"size": "3"}, {"size": "64"}, {"size": "96"}]}}}}}, {"name": "mixed_8/tower_1/conv_1/Conv2D_bn_offset", "op": "Const", "attr": {"dtype": {"type": "DT_FLOAT"}, "value": {"tensor": {"dtype": "DT_FLOAT", "tensorShape": {"dim": [{"size": "192"}]}}}}}, {"name": "mixed_3/tower/conv_1/Conv2D_bn_offset", "op": "Const", "attr": {"value": {"tensor": {"dtype": "DT_FLOAT", "tensorShape": {"dim": [{"size": "96"}]}}}, "dtype": {"type": "DT_FLOAT"}}}, {"name": "mixed_10/tower/mixed/conv/Conv2D_weights", "op": "Const", "attr": {"dtype": {"type": "DT_FLOAT"}, "value": {"tensor": {"dtype": "DT_FLOAT", "tensorShape": {"dim": [{"size": "1"}, {"size": "3"}, {"size": "384"}, {"size": "384"}]}}}}}, {"name": "mixed_3/tower/conv_2/Conv2D_weights", "op": "Const", "attr": {"dtype": {"type": "DT_FLOAT"}, "value": {"tensor": {"dtype": "DT_FLOAT", "tensorShape": {"dim": [{"size": "3"}, {"size": "3"}, {"size": "96"}, {"size": "96"}]}}}}}, {"name": "mixed_3/tower/conv_2/Conv2D_bn_offset", "op": "Const", "attr": {"dtype": {"type": "DT_FLOAT"}, "value": {"tensor": {"dtype": "DT_FLOAT", "tensorShape": {"dim": [{"size": "96"}]}}}}}, {"name": "mixed_8/tower_1/conv_2/Conv2D_weights", "op": "Const", "attr": {"dtype": {"type": "DT_FLOAT"}, "value": {"tensor": {"dtype": "DT_FLOAT", "tensorShape": {"dim": [{"size": "7"}, {"size": "1"}, {"size": "192"}, {"size": "192"}]}}}}}, {"name": "mixed_4/conv/Conv2D_weights", "op": "Const", "attr": {"value": {"tensor": {"dtype": "DT_FLOAT", "tensorShape": {"dim": [{"size": "1"}, {"size": "1"}, {"size": "768"}, {"size": "192"}]}}}, "dtype": {"type": "DT_FLOAT"}}}, {"name": "mixed_4/conv/Conv2D_bn_offset", "op": "Const", "attr": {"value": {"tensor": {"dtype": "DT_FLOAT", "tensorShape": {"dim": [{"size": "192"}]}}}, "dtype": {"type": "DT_FLOAT"}}}, {"name": "mixed_4/tower/conv/Conv2D_weights", "op": "Const", "attr": {"value": {"tensor": {"dtype": "DT_FLOAT", "tensorShape": {"dim": [{"size": "1"}, {"size": "1"}, {"size": "768"}, {"size": "128"}]}}}, "dtype": {"type": "DT_FLOAT"}}}, {"name": "mixed_8/tower_1/conv_2/Conv2D_bn_offset", "op": "Const", "attr": {"dtype": {"type": "DT_FLOAT"}, "value": {"tensor": {"dtype": "DT_FLOAT", "tensorShape": {"dim": [{"size": "192"}]}}}}}, {"name": "mixed_4/tower/conv/Conv2D_bn_offset", "op": "Const", "attr": {"dtype": {"type": "DT_FLOAT"}, "value": {"tensor": {"dtype": "DT_FLOAT", "tensorShape": {"dim": [{"size": "128"}]}}}}}, {"name": "mixed_10/tower/mixed/conv/Conv2D_bn_offset", "op": "Const", "attr": {"value": {"tensor": {"dtype": "DT_FLOAT", "tensorShape": {"dim": [{"size": "384"}]}}}, "dtype": {"type": "DT_FLOAT"}}}, {"name": "mixed_4/tower_1/conv/Conv2D_weights", "op": "Const", "attr": {"value": {"tensor": {"dtype": "DT_FLOAT", "tensorShape": {"dim": [{"size": "1"}, {"size": "1"}, {"size": "768"}, {"size": "128"}]}}}, "dtype": {"type": "DT_FLOAT"}}}, {"name": "mixed_4/tower_1/conv/Conv2D_bn_offset", "op": "Const", "attr": {"value": {"tensor": {"dtype": "DT_FLOAT", "tensorShape": {"dim": [{"size": "128"}]}}}, "dtype": {"type": "DT_FLOAT"}}}, {"name": "mixed_8/tower_1/conv_3/Conv2D_weights", "op": "Const", "attr": {"value": {"tensor": {"dtype": "DT_FLOAT", "tensorShape": {"dim": [{"size": "3"}, {"size": "3"}, {"size": "192"}, {"size": "192"}]}}}, "dtype": {"type": "DT_FLOAT"}}}, {"name": "mixed_4/tower_2/conv/Conv2D_weights", "op": "Const", "attr": {"value": {"tensor": {"dtype": "DT_FLOAT", "tensorShape": {"dim": [{"size": "1"}, {"size": "1"}, {"size": "768"}, {"size": "192"}]}}}, "dtype": {"type": "DT_FLOAT"}}}, {"name": "mixed_4/tower_2/conv/Conv2D_bn_offset", "op": "Const", "attr": {"value": {"tensor": {"dtype": "DT_FLOAT", "tensorShape": {"dim": [{"size": "192"}]}}}, "dtype": {"type": "DT_FLOAT"}}}, {"name": "mixed_4/tower/conv_1/Conv2D_weights", "op": "Const", "attr": {"dtype": {"type": "DT_FLOAT"}, "value": {"tensor": {"dtype": "DT_FLOAT", "tensorShape": {"dim": [{"size": "1"}, {"size": "7"}, {"size": "128"}, {"size": "128"}]}}}}}, {"name": "mixed_8/tower_1/conv_3/Conv2D_bn_offset", "op": "Const", "attr": {"value": {"tensor": {"dtype": "DT_FLOAT", "tensorShape": {"dim": [{"size": "192"}]}}}, "dtype": {"type": "DT_FLOAT"}}}, {"name": "mixed_4/tower/conv_1/Conv2D_bn_offset", "op": "Const", "attr": {"value": {"tensor": {"dtype": "DT_FLOAT", "tensorShape": {"dim": [{"size": "128"}]}}}, "dtype": {"type": "DT_FLOAT"}}}, {"name": "mixed_10/tower/mixed/conv_1/Conv2D_weights", "op": "Const", "attr": {"dtype": {"type": "DT_FLOAT"}, "value": {"tensor": {"dtype": "DT_FLOAT", "tensorShape": {"dim": [{"size": "3"}, {"size": "1"}, {"size": "384"}, {"size": "384"}]}}}}}, {"name": "mixed_4/tower_1/conv_1/Conv2D_weights", "op": "Const", "attr": {"dtype": {"type": "DT_FLOAT"}, "value": {"tensor": {"dtype": "DT_FLOAT", "tensorShape": {"dim": [{"size": "7"}, {"size": "1"}, {"size": "128"}, {"size": "128"}]}}}}}, {"name": "mixed_4/tower_1/conv_1/Conv2D_bn_offset", "op": "Const", "attr": {"value": {"tensor": {"dtype": "DT_FLOAT", "tensorShape": {"dim": [{"size": "128"}]}}}, "dtype": {"type": "DT_FLOAT"}}}, {"name": "mixed_4/tower/conv_2/Conv2D_weights", "op": "Const", "attr": {"value": {"tensor": {"dtype": "DT_FLOAT", "tensorShape": {"dim": [{"size": "7"}, {"size": "1"}, {"size": "128"}, {"size": "192"}]}}}, "dtype": {"type": "DT_FLOAT"}}}, {"name": "mixed_4/tower/conv_2/Conv2D_bn_offset", "op": "Const", "attr": {"dtype": {"type": "DT_FLOAT"}, "value": {"tensor": {"dtype": "DT_FLOAT", "tensorShape": {"dim": [{"size": "192"}]}}}}}, {"name": "mixed_4/tower_1/conv_2/Conv2D_weights", "op": "Const", "attr": {"dtype": {"type": "DT_FLOAT"}, "value": {"tensor": {"dtype": "DT_FLOAT", "tensorShape": {"dim": [{"size": "1"}, {"size": "7"}, {"size": "128"}, {"size": "128"}]}}}}}, {"name": "mixed_9/conv/Conv2D_weights", "op": "Const", "attr": {"value": {"tensor": {"dtype": "DT_FLOAT", "tensorShape": {"dim": [{"size": "1"}, {"size": "1"}, {"size": "1280"}, {"size": "320"}]}}}, "dtype": {"type": "DT_FLOAT"}}}, {"name": "mixed_4/tower_1/conv_2/Conv2D_bn_offset", "op": "Const", "attr": {"dtype": {"type": "DT_FLOAT"}, "value": {"tensor": {"dtype": "DT_FLOAT", "tensorShape": {"dim": [{"size": "128"}]}}}}}, {"name": "mixed_4/tower_1/conv_3/Conv2D_weights", "op": "Const", "attr": {"dtype": {"type": "DT_FLOAT"}, "value": {"tensor": {"dtype": "DT_FLOAT", "tensorShape": {"dim": [{"size": "7"}, {"size": "1"}, {"size": "128"}, {"size": "128"}]}}}}}, {"name": "mixed_9/conv/Conv2D_bn_offset", "op": "Const", "attr": {"dtype": {"type": "DT_FLOAT"}, "value": {"tensor": {"dtype": "DT_FLOAT", "tensorShape": {"dim": [{"size": "320"}]}}}}}, {"name": "mixed_4/tower_1/conv_3/Conv2D_bn_offset", "op": "Const", "attr": {"dtype": {"type": "DT_FLOAT"}, "value": {"tensor": {"dtype": "DT_FLOAT", "tensorShape": {"dim": [{"size": "128"}]}}}}}, {"name": "mixed_4/tower_1/conv_4/Conv2D_weights", "op": "Const", "attr": {"dtype": {"type": "DT_FLOAT"}, "value": {"tensor": {"dtype": "DT_FLOAT", "tensorShape": {"dim": [{"size": "1"}, {"size": "7"}, {"size": "128"}, {"size": "192"}]}}}}}, {"name": "mixed_9/tower/conv/Conv2D_weights", "op": "Const", "attr": {"dtype": {"type": "DT_FLOAT"}, "value": {"tensor": {"dtype": "DT_FLOAT", "tensorShape": {"dim": [{"size": "1"}, {"size": "1"}, {"size": "1280"}, {"size": "384"}]}}}}}, {"name": "mixed_4/tower_1/conv_4/Conv2D_bn_offset", "op": "Const", "attr": {"dtype": {"type": "DT_FLOAT"}, "value": {"tensor": {"dtype": "DT_FLOAT", "tensorShape": {"dim": [{"size": "192"}]}}}}}, {"name": "mixed_5/conv/Conv2D_weights", "op": "Const", "attr": {"dtype": {"type": "DT_FLOAT"}, "value": {"tensor": {"dtype": "DT_FLOAT", "tensorShape": {"dim": [{"size": "1"}, {"size": "1"}, {"size": "768"}, {"size": "192"}]}}}}}, {"name": "mixed_10/tower/mixed/conv_1/Conv2D_bn_offset", "op": "Const", "attr": {"dtype": {"type": "DT_FLOAT"}, "value": {"tensor": {"dtype": "DT_FLOAT", "tensorShape": {"dim": [{"size": "384"}]}}}}}, {"name": "mixed_5/conv/Conv2D_bn_offset", "op": "Const", "attr": {"dtype": {"type": "DT_FLOAT"}, "value": {"tensor": {"dtype": "DT_FLOAT", "tensorShape": {"dim": [{"size": "192"}]}}}}}, {"name": "mixed_5/tower/conv/Conv2D_weights", "op": "Const", "attr": {"dtype": {"type": "DT_FLOAT"}, "value": {"tensor": {"dtype": "DT_FLOAT", "tensorShape": {"dim": [{"size": "1"}, {"size": "1"}, {"size": "768"}, {"size": "160"}]}}}}}, {"name": "mixed_9/tower/conv/Conv2D_bn_offset", "op": "Const", "attr": {"dtype": {"type": "DT_FLOAT"}, "value": {"tensor": {"dtype": "DT_FLOAT", "tensorShape": {"dim": [{"size": "384"}]}}}}}, {"name": "mixed_5/tower/conv/Conv2D_bn_offset", "op": "Const", "attr": {"dtype": {"type": "DT_FLOAT"}, "value": {"tensor": {"dtype": "DT_FLOAT", "tensorShape": {"dim": [{"size": "160"}]}}}}}, {"name": "mixed_5/tower_1/conv/Conv2D_weights", "op": "Const", "attr": {"dtype": {"type": "DT_FLOAT"}, "value": {"tensor": {"dtype": "DT_FLOAT", "tensorShape": {"dim": [{"size": "1"}, {"size": "1"}, {"size": "768"}, {"size": "160"}]}}}}}, {"name": "mixed_5/tower_1/conv/Conv2D_bn_offset", "op": "Const", "attr": {"dtype": {"type": "DT_FLOAT"}, "value": {"tensor": {"dtype": "DT_FLOAT", "tensorShape": {"dim": [{"size": "160"}]}}}}}, {"name": "mixed_9/tower_1/conv/Conv2D_weights", "op": "Const", "attr": {"dtype": {"type": "DT_FLOAT"}, "value": {"tensor": {"dtype": "DT_FLOAT", "tensorShape": {"dim": [{"size": "1"}, {"size": "1"}, {"size": "1280"}, {"size": "448"}]}}}}}, {"name": "mixed_5/tower_2/conv/Conv2D_weights", "op": "Const", "attr": {"dtype": {"type": "DT_FLOAT"}, "value": {"tensor": {"dtype": "DT_FLOAT", "tensorShape": {"dim": [{"size": "1"}, {"size": "1"}, {"size": "768"}, {"size": "192"}]}}}}}, {"name": "mixed_10/tower_1/conv_1/Conv2D_weights", "op": "Const", "attr": {"dtype": {"type": "DT_FLOAT"}, "value": {"tensor": {"dtype": "DT_FLOAT", "tensorShape": {"dim": [{"size": "3"}, {"size": "3"}, {"size": "448"}, {"size": "384"}]}}}}}, {"name": "mixed_5/tower_2/conv/Conv2D_bn_offset", "op": "Const", "attr": {"dtype": {"type": "DT_FLOAT"}, "value": {"tensor": {"dtype": "DT_FLOAT", "tensorShape": {"dim": [{"size": "192"}]}}}}}, {"name": "mixed_5/tower/conv_1/Conv2D_weights", "op": "Const", "attr": {"dtype": {"type": "DT_FLOAT"}, "value": {"tensor": {"dtype": "DT_FLOAT", "tensorShape": {"dim": [{"size": "1"}, {"size": "7"}, {"size": "160"}, {"size": "160"}]}}}}}, {"name": "mixed_9/tower_1/conv/Conv2D_bn_offset", "op": "Const", "attr": {"dtype": {"type": "DT_FLOAT"}, "value": {"tensor": {"dtype": "DT_FLOAT", "tensorShape": {"dim": [{"size": "448"}]}}}}}, {"name": "mixed_5/tower/conv_1/Conv2D_bn_offset", "op": "Const", "attr": {"dtype": {"type": "DT_FLOAT"}, "value": {"tensor": {"dtype": "DT_FLOAT", "tensorShape": {"dim": [{"size": "160"}]}}}}}, {"name": "mixed_5/tower_1/conv_1/Conv2D_weights", "op": "Const", "attr": {"dtype": {"type": "DT_FLOAT"}, "value": {"tensor": {"dtype": "DT_FLOAT", "tensorShape": {"dim": [{"size": "7"}, {"size": "1"}, {"size": "160"}, {"size": "160"}]}}}}}, {"name": "mixed_5/tower_1/conv_1/Conv2D_bn_offset", "op": "Const", "attr": {"dtype": {"type": "DT_FLOAT"}, "value": {"tensor": {"dtype": "DT_FLOAT", "tensorShape": {"dim": [{"size": "160"}]}}}}}, {"name": "mixed_9/tower_2/conv/Conv2D_weights", "op": "Const", "attr": {"dtype": {"type": "DT_FLOAT"}, "value": {"tensor": {"dtype": "DT_FLOAT", "tensorShape": {"dim": [{"size": "1"}, {"size": "1"}, {"size": "1280"}, {"size": "192"}]}}}}}, {"name": "mixed_5/tower/conv_2/Conv2D_weights", "op": "Const", "attr": {"dtype": {"type": "DT_FLOAT"}, "value": {"tensor": {"dtype": "DT_FLOAT", "tensorShape": {"dim": [{"size": "7"}, {"size": "1"}, {"size": "160"}, {"size": "192"}]}}}}}, {"name": "mixed_10/tower_1/conv_1/Conv2D_bn_offset", "op": "Const", "attr": {"dtype": {"type": "DT_FLOAT"}, "value": {"tensor": {"dtype": "DT_FLOAT", "tensorShape": {"dim": [{"size": "384"}]}}}}}, {"name": "mixed_5/tower/conv_2/Conv2D_bn_offset", "op": "Const", "attr": {"dtype": {"type": "DT_FLOAT"}, "value": {"tensor": {"dtype": "DT_FLOAT", "tensorShape": {"dim": [{"size": "192"}]}}}}}, {"name": "mixed_5/tower_1/conv_2/Conv2D_weights", "op": "Const", "attr": {"dtype": {"type": "DT_FLOAT"}, "value": {"tensor": {"dtype": "DT_FLOAT", "tensorShape": {"dim": [{"size": "1"}, {"size": "7"}, {"size": "160"}, {"size": "160"}]}}}}}, {"name": "mixed_9/tower_2/conv/Conv2D_bn_offset", "op": "Const", "attr": {"dtype": {"type": "DT_FLOAT"}, "value": {"tensor": {"dtype": "DT_FLOAT", "tensorShape": {"dim": [{"size": "192"}]}}}}}, {"name": "mixed_5/tower_1/conv_2/Conv2D_bn_offset", "op": "Const", "attr": {"dtype": {"type": "DT_FLOAT"}, "value": {"tensor": {"dtype": "DT_FLOAT", "tensorShape": {"dim": [{"size": "160"}]}}}}}, {"name": "mixed_5/tower_1/conv_3/Conv2D_weights", "op": "Const", "attr": {"dtype": {"type": "DT_FLOAT"}, "value": {"tensor": {"dtype": "DT_FLOAT", "tensorShape": {"dim": [{"size": "7"}, {"size": "1"}, {"size": "160"}, {"size": "160"}]}}}}}, {"name": "mixed_9/tower/mixed/conv/Conv2D_weights", "op": "Const", "attr": {"dtype": {"type": "DT_FLOAT"}, "value": {"tensor": {"dtype": "DT_FLOAT", "tensorShape": {"dim": [{"size": "1"}, {"size": "3"}, {"size": "384"}, {"size": "384"}]}}}}}, {"name": "mixed_5/tower_1/conv_3/Conv2D_bn_offset", "op": "Const", "attr": {"dtype": {"type": "DT_FLOAT"}, "value": {"tensor": {"dtype": "DT_FLOAT", "tensorShape": {"dim": [{"size": "160"}]}}}}}, {"name": "mixed_5/tower_1/conv_4/Conv2D_weights", "op": "Const", "attr": {"dtype": {"type": "DT_FLOAT"}, "value": {"tensor": {"dtype": "DT_FLOAT", "tensorShape": {"dim": [{"size": "1"}, {"size": "7"}, {"size": "160"}, {"size": "192"}]}}}}}, {"name": "mixed_9/tower/mixed/conv/Conv2D_bn_offset", "op": "Const", "attr": {"dtype": {"type": "DT_FLOAT"}, "value": {"tensor": {"dtype": "DT_FLOAT", "tensorShape": {"dim": [{"size": "384"}]}}}}}, {"name": "mixed_5/tower_1/conv_4/Conv2D_bn_offset", "op": "Const", "attr": {"dtype": {"type": "DT_FLOAT"}, "value": {"tensor": {"dtype": "DT_FLOAT", "tensorShape": {"dim": [{"size": "192"}]}}}}}, {"name": "mixed_6/conv/Conv2D_weights", "op": "Const", "attr": {"dtype": {"type": "DT_FLOAT"}, "value": {"tensor": {"dtype": "DT_FLOAT", "tensorShape": {"dim": [{"size": "1"}, {"size": "1"}, {"size": "768"}, {"size": "192"}]}}}}}, {"name": "mixed_6/conv/Conv2D_bn_offset", "op": "Const", "attr": {"dtype": {"type": "DT_FLOAT"}, "value": {"tensor": {"dtype": "DT_FLOAT", "tensorShape": {"dim": [{"size": "192"}]}}}}}, {"name": "mixed_6/tower/conv/Conv2D_weights", "op": "Const", "attr": {"dtype": {"type": "DT_FLOAT"}, "value": {"tensor": {"dtype": "DT_FLOAT", "tensorShape": {"dim": [{"size": "1"}, {"size": "1"}, {"size": "768"}, {"size": "160"}]}}}}}, {"name": "mixed_9/tower/mixed/conv_1/Conv2D_weights", "op": "Const", "attr": {"dtype": {"type": "DT_FLOAT"}, "value": {"tensor": {"dtype": "DT_FLOAT", "tensorShape": {"dim": [{"size": "3"}, {"size": "1"}, {"size": "384"}, {"size": "384"}]}}}}}, {"name": "mixed_6/tower/conv/Conv2D_bn_offset", "op": "Const", "attr": {"dtype": {"type": "DT_FLOAT"}, "value": {"tensor": {"dtype": "DT_FLOAT", "tensorShape": {"dim": [{"size": "160"}]}}}}}, {"name": "mixed_6/tower_1/conv/Conv2D_weights", "op": "Const", "attr": {"dtype": {"type": "DT_FLOAT"}, "value": {"tensor": {"dtype": "DT_FLOAT", "tensorShape": {"dim": [{"size": "1"}, {"size": "1"}, {"size": "768"}, {"size": "160"}]}}}}}, {"name": "mixed_9/tower/mixed/conv_1/Conv2D_bn_offset", "op": "Const", "attr": {"dtype": {"type": "DT_FLOAT"}, "value": {"tensor": {"dtype": "DT_FLOAT", "tensorShape": {"dim": [{"size": "384"}]}}}}}, {"name": "mixed_6/tower_1/conv/Conv2D_bn_offset", "op": "Const", "attr": {"dtype": {"type": "DT_FLOAT"}, "value": {"tensor": {"dtype": "DT_FLOAT", "tensorShape": {"dim": [{"size": "160"}]}}}}}, {"name": "mixed_6/tower_2/conv/Conv2D_weights", "op": "Const", "attr": {"dtype": {"type": "DT_FLOAT"}, "value": {"tensor": {"dtype": "DT_FLOAT", "tensorShape": {"dim": [{"size": "1"}, {"size": "1"}, {"size": "768"}, {"size": "192"}]}}}}}, {"name": "mixed_9/tower_1/conv_1/Conv2D_weights", "op": "Const", "attr": {"dtype": {"type": "DT_FLOAT"}, "value": {"tensor": {"dtype": "DT_FLOAT", "tensorShape": {"dim": [{"size": "3"}, {"size": "3"}, {"size": "448"}, {"size": "384"}]}}}}}, {"name": "mixed_6/tower_2/conv/Conv2D_bn_offset", "op": "Const", "attr": {"dtype": {"type": "DT_FLOAT"}, "value": {"tensor": {"dtype": "DT_FLOAT", "tensorShape": {"dim": [{"size": "192"}]}}}}}, {"name": "mixed_6/tower/conv_1/Conv2D_weights", "op": "Const", "attr": {"dtype": {"type": "DT_FLOAT"}, "value": {"tensor": {"dtype": "DT_FLOAT", "tensorShape": {"dim": [{"size": "1"}, {"size": "7"}, {"size": "160"}, {"size": "160"}]}}}}}, {"name": "mixed_10/tower_1/mixed/conv/Conv2D_weights", "op": "Const", "attr": {"dtype": {"type": "DT_FLOAT"}, "value": {"tensor": {"dtype": "DT_FLOAT", "tensorShape": {"dim": [{"size": "1"}, {"size": "3"}, {"size": "384"}, {"size": "384"}]}}}}}, {"name": "mixed_6/tower/conv_1/Conv2D_bn_offset", "op": "Const", "attr": {"dtype": {"type": "DT_FLOAT"}, "value": {"tensor": {"dtype": "DT_FLOAT", "tensorShape": {"dim": [{"size": "160"}]}}}}}, {"name": "mixed_9/tower_1/conv_1/Conv2D_bn_offset", "op": "Const", "attr": {"dtype": {"type": "DT_FLOAT"}, "value": {"tensor": {"dtype": "DT_FLOAT", "tensorShape": {"dim": [{"size": "384"}]}}}}}, {"name": "mixed_6/tower_1/conv_1/Conv2D_weights", "op": "Const", "attr": {"dtype": {"type": "DT_FLOAT"}, "value": {"tensor": {"dtype": "DT_FLOAT", "tensorShape": {"dim": [{"size": "7"}, {"size": "1"}, {"size": "160"}, {"size": "160"}]}}}}}, {"name": "mixed_6/tower_1/conv_1/Conv2D_bn_offset", "op": "Const", "attr": {"dtype": {"type": "DT_FLOAT"}, "value": {"tensor": {"dtype": "DT_FLOAT", "tensorShape": {"dim": [{"size": "160"}]}}}}}, {"name": "mixed_6/tower/conv_2/Conv2D_weights", "op": "Const", "attr": {"dtype": {"type": "DT_FLOAT"}, "value": {"tensor": {"dtype": "DT_FLOAT", "tensorShape": {"dim": [{"size": "7"}, {"size": "1"}, {"size": "160"}, {"size": "192"}]}}}}}, {"name": "mixed_9/tower_1/mixed/conv/Conv2D_weights", "op": "Const", "attr": {"dtype": {"type": "DT_FLOAT"}, "value": {"tensor": {"dtype": "DT_FLOAT", "tensorShape": {"dim": [{"size": "1"}, {"size": "3"}, {"size": "384"}, {"size": "384"}]}}}}}, {"name": "mixed_6/tower/conv_2/Conv2D_bn_offset", "op": "Const", "attr": {"dtype": {"type": "DT_FLOAT"}, "value": {"tensor": {"dtype": "DT_FLOAT", "tensorShape": {"dim": [{"size": "192"}]}}}}}, {"name": "mixed_6/tower_1/conv_2/Conv2D_weights", "op": "Const", "attr": {"dtype": {"type": "DT_FLOAT"}, "value": {"tensor": {"dtype": "DT_FLOAT", "tensorShape": {"dim": [{"size": "1"}, {"size": "7"}, {"size": "160"}, {"size": "160"}]}}}}}, {"name": "mixed_10/tower_1/mixed/conv/Conv2D_bn_offset", "op": "Const", "attr": {"dtype": {"type": "DT_FLOAT"}, "value": {"tensor": {"dtype": "DT_FLOAT", "tensorShape": {"dim": [{"size": "384"}]}}}}}, {"name": "mixed_6/tower_1/conv_2/Conv2D_bn_offset", "op": "Const", "attr": {"dtype": {"type": "DT_FLOAT"}, "value": {"tensor": {"dtype": "DT_FLOAT", "tensorShape": {"dim": [{"size": "160"}]}}}}}, {"name": "mixed_9/tower_1/mixed/conv/Conv2D_bn_offset", "op": "Const", "attr": {"dtype": {"type": "DT_FLOAT"}, "value": {"tensor": {"dtype": "DT_FLOAT", "tensorShape": {"dim": [{"size": "384"}]}}}}}, {"name": "mixed_6/tower_1/conv_3/Conv2D_weights", "op": "Const", "attr": {"dtype": {"type": "DT_FLOAT"}, "value": {"tensor": {"dtype": "DT_FLOAT", "tensorShape": {"dim": [{"size": "7"}, {"size": "1"}, {"size": "160"}, {"size": "160"}]}}}}}, {"name": "mixed_6/tower_1/conv_3/Conv2D_bn_offset", "op": "Const", "attr": {"dtype": {"type": "DT_FLOAT"}, "value": {"tensor": {"dtype": "DT_FLOAT", "tensorShape": {"dim": [{"size": "160"}]}}}}}, {"name": "mixed_9/tower_1/mixed/conv_1/Conv2D_weights", "op": "Const", "attr": {"dtype": {"type": "DT_FLOAT"}, "value": {"tensor": {"dtype": "DT_FLOAT", "tensorShape": {"dim": [{"size": "3"}, {"size": "1"}, {"size": "384"}, {"size": "384"}]}}}}}, {"name": "mixed_6/tower_1/conv_4/Conv2D_weights", "op": "Const", "attr": {"dtype": {"type": "DT_FLOAT"}, "value": {"tensor": {"dtype": "DT_FLOAT", "tensorShape": {"dim": [{"size": "1"}, {"size": "7"}, {"size": "160"}, {"size": "192"}]}}}}}, {"name": "mixed_6/tower_1/conv_4/Conv2D_bn_offset", "op": "Const", "attr": {"dtype": {"type": "DT_FLOAT"}, "value": {"tensor": {"dtype": "DT_FLOAT", "tensorShape": {"dim": [{"size": "192"}]}}}}}, {"name": "mixed_7/conv/Conv2D_weights", "op": "Const", "attr": {"value": {"tensor": {"dtype": "DT_FLOAT", "tensorShape": {"dim": [{"size": "1"}, {"size": "1"}, {"size": "768"}, {"size": "192"}]}}}, "dtype": {"type": "DT_FLOAT"}}}, {"name": "mixed_9/tower_1/mixed/conv_1/Conv2D_bn_offset", "op": "Const", "attr": {"dtype": {"type": "DT_FLOAT"}, "value": {"tensor": {"dtype": "DT_FLOAT", "tensorShape": {"dim": [{"size": "384"}]}}}}}, {"name": "mixed_7/conv/Conv2D_bn_offset", "op": "Const", "attr": {"dtype": {"type": "DT_FLOAT"}, "value": {"tensor": {"dtype": "DT_FLOAT", "tensorShape": {"dim": [{"size": "192"}]}}}}}, {"name": "mixed_7/tower/conv/Conv2D_weights", "op": "Const", "attr": {"value": {"tensor": {"dtype": "DT_FLOAT", "tensorShape": {"dim": [{"size": "1"}, {"size": "1"}, {"size": "768"}, {"size": "192"}]}}}, "dtype": {"type": "DT_FLOAT"}}}, {"name": "mixed_7/tower/conv/Conv2D_bn_offset", "op": "Const", "attr": {"dtype": {"type": "DT_FLOAT"}, "value": {"tensor": {"dtype": "DT_FLOAT", "tensorShape": {"dim": [{"size": "192"}]}}}}}, {"name": "mixed_7/tower_1/conv/Conv2D_weights", "op": "Const", "attr": {"dtype": {"type": "DT_FLOAT"}, "value": {"tensor": {"dtype": "DT_FLOAT", "tensorShape": {"dim": [{"size": "1"}, {"size": "1"}, {"size": "768"}, {"size": "192"}]}}}}}, {"name": "mixed_7/tower_1/conv/Conv2D_bn_offset", "op": "Const", "attr": {"dtype": {"type": "DT_FLOAT"}, "value": {"tensor": {"dtype": "DT_FLOAT", "tensorShape": {"dim": [{"size": "192"}]}}}}}, {"name": "mixed_7/tower_2/conv/Conv2D_weights", "op": "Const", "attr": {"dtype": {"type": "DT_FLOAT"}, "value": {"tensor": {"dtype": "DT_FLOAT", "tensorShape": {"dim": [{"size": "1"}, {"size": "1"}, {"size": "768"}, {"size": "192"}]}}}}}, {"name": "mixed_10/conv/Conv2D_weights", "op": "Const", "attr": {"dtype": {"type": "DT_FLOAT"}, "value": {"tensor": {"dtype": "DT_FLOAT", "tensorShape": {"dim": [{"size": "1"}, {"size": "1"}, {"size": "2048"}, {"size": "320"}]}}}}}, {"name": "mixed_7/tower_2/conv/Conv2D_bn_offset", "op": "Const", "attr": {"value": {"tensor": {"dtype": "DT_FLOAT", "tensorShape": {"dim": [{"size": "192"}]}}}, "dtype": {"type": "DT_FLOAT"}}}, {"name": "mixed_7/tower/conv_1/Conv2D_weights", "op": "Const", "attr": {"dtype": {"type": "DT_FLOAT"}, "value": {"tensor": {"dtype": "DT_FLOAT", "tensorShape": {"dim": [{"size": "1"}, {"size": "7"}, {"size": "192"}, {"size": "192"}]}}}}}, {"name": "mixed_10/tower_1/mixed/conv_1/Conv2D_weights", "op": "Const", "attr": {"dtype": {"type": "DT_FLOAT"}, "value": {"tensor": {"dtype": "DT_FLOAT", "tensorShape": {"dim": [{"size": "3"}, {"size": "1"}, {"size": "384"}, {"size": "384"}]}}}}}, {"name": "mixed_7/tower/conv_1/Conv2D_bn_offset", "op": "Const", "attr": {"dtype": {"type": "DT_FLOAT"}, "value": {"tensor": {"dtype": "DT_FLOAT", "tensorShape": {"dim": [{"size": "192"}]}}}}}, {"name": "mixed_10/conv/Conv2D_bn_offset", "op": "Const", "attr": {"dtype": {"type": "DT_FLOAT"}, "value": {"tensor": {"dtype": "DT_FLOAT", "tensorShape": {"dim": [{"size": "320"}]}}}}}, {"name": "mixed_7/tower_1/conv_1/Conv2D_weights", "op": "Const", "attr": {"dtype": {"type": "DT_FLOAT"}, "value": {"tensor": {"dtype": "DT_FLOAT", "tensorShape": {"dim": [{"size": "7"}, {"size": "1"}, {"size": "192"}, {"size": "192"}]}}}}}, {"name": "DecodeJpeg", "op": "DecodeJpeg", "input": ["DecodeJpeg/contents"], "attr": {"fancy_upscaling": {"b": true}, "acceptable_fraction": {"f": 1.0}, "ratio": {"i": "1"}, "try_recover_truncated": {"b": false}, "dct_method": {"s": ""}, "channels": {"i": "3"}}}, {"name": "Cast", "op": "Cast", "input": ["DecodeJpeg"], "attr": {"SrcT": {"type": "DT_UINT8"}, "Truncate": {"b": false}, "DstT": {"type": "DT_FLOAT"}}}, {"name": "ExpandDims", "op": "ExpandDims", "input": ["Cast", "ExpandDims/dim"], "attr": {"Tdim": {"type": "DT_INT32"}, "T": {"type": "DT_FLOAT"}}}, {"name": "ResizeBilinear", "op": "ResizeBilinear", "input": ["ExpandDims", "ResizeBilinear/size"], "attr": {"half_pixel_centers": {"b": false}, "T": {"type": "DT_FLOAT"}, "align_corners": {"b": false}}}, {"name": "Sub", "op": "Sub", "input": ["ResizeBilinear", "Sub/y"], "attr": {"T": {"type": "DT_FLOAT"}}}, {"name": "conv", "op": "_FusedConv2D", "input": ["Sub", "conv/Conv2D_weights", "conv/Conv2D_bn_offset"], "device": "/device:CPU:0", "attr": {"fused_ops": {"list": {"s": ["Qmlhc0FkZA==", "UmVsdQ=="]}}, "padding": {"s": "VkFMSUQ="}, "data_format": {"s": "TkhXQw=="}, "T": {"type": "DT_FLOAT"}, "num_args": {"i": "1"}, "strides": {"list": {"i": ["1", "2", "2", "1"]}}, "explicit_paddings": {"list": {}}, "epsilon": {"f": 0.0}, "use_cudnn_on_gpu": {"b": true}, "dilations": {"list": {"i": ["1", "1", "1", "1"]}}}}, {"name": "conv_1", "op": "_FusedConv2D", "input": ["conv", "conv_1/Conv2D_weights", "conv_1/Conv2D_bn_offset"], "device": "/device:CPU:0", "attr": {"num_args": {"i": "1"}, "strides": {"list": {"i": ["1", "1", "1", "1"]}}, "epsilon": {"f": 0.0}, "use_cudnn_on_gpu": {"b": true}, "dilations": {"list": {"i": ["1", "1", "1", "1"]}}, "explicit_paddings": {"list": {}}, "fused_ops": {"list": {"s": ["Qmlhc0FkZA==", "UmVsdQ=="]}}, "data_format": {"s": "TkhXQw=="}, "T": {"type": "DT_FLOAT"}, "padding": {"s": "VkFMSUQ="}}}, {"name": "conv_2/batchnorm", "op": "_FusedConv2D", "input": ["conv_1", "conv_2/Conv2D_weights", "conv_2/Conv2D_bn_offset"], "device": "/device:CPU:0", "attr": {"dilations": {"list": {"i": ["1", "1", "1", "1"]}}, "T": {"type": "DT_FLOAT"}, "data_format": {"s": "TkhXQw=="}, "num_args": {"i": "1"}, "padding": {"s": "U0FNRQ=="}, "fused_ops": {"list": {"s": ["Qmlhc0FkZA=="]}}, "explicit_paddings": {"list": {}}, "use_cudnn_on_gpu": {"b": true}, "epsilon": {"f": 0.0}, "strides": {"list": {"i": ["1", "1", "1", "1"]}}}}, {"name": "pool", "op": "MaxPool", "input": ["conv_2/batchnorm"], "attr": {"strides": {"list": {"i": ["1", "2", "2", "1"]}}, "ksize": {"list": {"i": ["1", "3", "3", "1"]}}, "explicit_paddings": {"list": {}}, "data_format": {"s": "TkhXQw=="}, "T": {"type": "DT_FLOAT"}, "padding": {"s": "VkFMSUQ="}}}, {"name": "conv_2", "op": "Relu", "input": ["pool"], "attr": {"T": {"type": "DT_FLOAT"}}}, {"name": "conv_3", "op": "_FusedConv2D", "input": ["conv_2", "conv_3/Conv2D_weights", "conv_3/Conv2D_bn_offset"], "device": "/device:CPU:0", "attr": {"dilations": {"list": {"i": ["1", "1", "1", "1"]}}, "T": {"type": "DT_FLOAT"}, "data_format": {"s": "TkhXQw=="}, "num_args": {"i": "1"}, "padding": {"s": "VkFMSUQ="}, "fused_ops": {"list": {"s": ["Qmlhc0FkZA==", "UmVsdQ=="]}}, "explicit_paddings": {"list": {}}, "use_cudnn_on_gpu": {"b": true}, "epsilon": {"f": 0.0}, "strides": {"list": {"i": ["1", "1", "1", "1"]}}}}, {"name": "conv_4/batchnorm", "op": "_FusedConv2D", "input": ["conv_3", "conv_4/Conv2D_weights", "conv_4/Conv2D_bn_offset"], "device": "/device:CPU:0", "attr": {"num_args": {"i": "1"}, "strides": {"list": {"i": ["1", "1", "1", "1"]}}, "epsilon": {"f": 0.0}, "use_cudnn_on_gpu": {"b": true}, "dilations": {"list": {"i": ["1", "1", "1", "1"]}}, "explicit_paddings": {"list": {}}, "fused_ops": {"list": {"s": ["Qmlhc0FkZA=="]}}, "data_format": {"s": "TkhXQw=="}, "T": {"type": "DT_FLOAT"}, "padding": {"s": "VkFMSUQ="}}}, {"name": "pool_1", "op": "MaxPool", "input": ["conv_4/batchnorm"], "attr": {"padding": {"s": "VkFMSUQ="}, "data_format": {"s": "TkhXQw=="}, "T": {"type": "DT_FLOAT"}, "strides": {"list": {"i": ["1", "2", "2", "1"]}}, "explicit_paddings": {"list": {}}, "ksize": {"list": {"i": ["1", "3", "3", "1"]}}}}, {"name": "conv_4", "op": "Relu", "input": ["pool_1"], "attr": {"T": {"type": "DT_FLOAT"}}}, {"name": "mixed/tower_2/pool", "op": "AvgPool", "input": ["conv_4"], "attr": {"strides": {"list": {"i": ["1", "1", "1", "1"]}}, "data_format": {"s": "TkhXQw=="}, "ksize": {"list": {"i": ["1", "3", "3", "1"]}}, "T": {"type": "DT_FLOAT"}, "padding": {"s": "U0FNRQ=="}}}, {"name": "mixed/conv/batchnorm", "op": "_FusedConv2D", "input": ["conv_4", "mixed/conv/Conv2D_weights", "mixed/conv/Conv2D_bn_offset"], "device": "/device:CPU:0", "attr": {"fused_ops": {"list": {"s": ["Qmlhc0FkZA=="]}}, "padding": {"s": "U0FNRQ=="}, "data_format": {"s": "TkhXQw=="}, "T": {"type": "DT_FLOAT"}, "num_args": {"i": "1"}, "strides": {"list": {"i": ["1", "1", "1", "1"]}}, "explicit_paddings": {"list": {}}, "epsilon": {"f": 0.0}, "use_cudnn_on_gpu": {"b": true}, "dilations": {"list": {"i": ["1", "1", "1", "1"]}}}}, {"name": "mixed/tower/conv", "op": "_FusedConv2D", "input": ["conv_4", "mixed/tower/conv/Conv2D_weights", "mixed/tower/conv/Conv2D_bn_offset"], "device": "/device:CPU:0", "attr": {"explicit_paddings": {"list": {}}, "padding": {"s": "U0FNRQ=="}, "epsilon": {"f": 0.0}, "use_cudnn_on_gpu": {"b": true}, "dilations": {"list": {"i": ["1", "1", "1", "1"]}}, "T": {"type": "DT_FLOAT"}, "data_format": {"s": "TkhXQw=="}, "num_args": {"i": "1"}, "fused_ops": {"list": {"s": ["Qmlhc0FkZA==", "UmVsdQ=="]}}, "strides": {"list": {"i": ["1", "1", "1", "1"]}}}}, {"name": "mixed/tower_1/conv", "op": "_FusedConv2D", "input": ["conv_4", "mixed/tower_1/conv/Conv2D_weights", "mixed/tower_1/conv/Conv2D_bn_offset"], "device": "/device:CPU:0", "attr": {"num_args": {"i": "1"}, "strides": {"list": {"i": ["1", "1", "1", "1"]}}, "epsilon": {"f": 0.0}, "use_cudnn_on_gpu": {"b": true}, "dilations": {"list": {"i": ["1", "1", "1", "1"]}}, "explicit_paddings": {"list": {}}, "fused_ops": {"list": {"s": ["Qmlhc0FkZA==", "UmVsdQ=="]}}, "data_format": {"s": "TkhXQw=="}, "T": {"type": "DT_FLOAT"}, "padding": {"s": "U0FNRQ=="}}}, {"name": "mixed/tower_2/conv/batchnorm", "op": "_FusedConv2D", "input": ["mixed/tower_2/pool", "mixed/tower_2/conv/Conv2D_weights", "mixed/tower_2/conv/Conv2D_bn_offset"], "device": "/device:CPU:0", "attr": {"explicit_paddings": {"list": {}}, "padding": {"s": "U0FNRQ=="}, "epsilon": {"f": 0.0}, "use_cudnn_on_gpu": {"b": true}, "dilations": {"list": {"i": ["1", "1", "1", "1"]}}, "T": {"type": "DT_FLOAT"}, "data_format": {"s": "TkhXQw=="}, "num_args": {"i": "1"}, "fused_ops": {"list": {"s": ["Qmlhc0FkZA=="]}}, "strides": {"list": {"i": ["1", "1", "1", "1"]}}}}, {"name": "mixed/tower/conv_1/batchnorm", "op": "_FusedConv2D", "input": ["mixed/tower/conv", "mixed/tower/conv_1/Conv2D_weights", "mixed/tower/conv_1/Conv2D_bn_offset"], "device": "/device:CPU:0", "attr": {"dilations": {"list": {"i": ["1", "1", "1", "1"]}}, "T": {"type": "DT_FLOAT"}, "data_format": {"s": "TkhXQw=="}, "num_args": {"i": "1"}, "padding": {"s": "U0FNRQ=="}, "fused_ops": {"list": {"s": ["Qmlhc0FkZA=="]}}, "explicit_paddings": {"list": {}}, "use_cudnn_on_gpu": {"b": true}, "epsilon": {"f": 0.0}, "strides": {"list": {"i": ["1", "1", "1", "1"]}}}}, {"name": "mixed/tower_1/conv_1", "op": "_FusedConv2D", "input": ["mixed/tower_1/conv", "mixed/tower_1/conv_1/Conv2D_weights", "mixed/tower_1/conv_1/Conv2D_bn_offset"], "device": "/device:CPU:0", "attr": {"dilations": {"list": {"i": ["1", "1", "1", "1"]}}, "T": {"type": "DT_FLOAT"}, "data_format": {"s": "TkhXQw=="}, "num_args": {"i": "1"}, "padding": {"s": "U0FNRQ=="}, "fused_ops": {"list": {"s": ["Qmlhc0FkZA==", "UmVsdQ=="]}}, "explicit_paddings": {"list": {}}, "use_cudnn_on_gpu": {"b": true}, "epsilon": {"f": 0.0}, "strides": {"list": {"i": ["1", "1", "1", "1"]}}}}, {"name": "mixed/tower_1/conv_2/batchnorm", "op": "_FusedConv2D", "input": ["mixed/tower_1/conv_1", "mixed/tower_1/conv_2/Conv2D_weights", "mixed/tower_1/conv_2/Conv2D_bn_offset"], "device": "/device:CPU:0", "attr": {"dilations": {"list": {"i": ["1", "1", "1", "1"]}}, "T": {"type": "DT_FLOAT"}, "data_format": {"s": "TkhXQw=="}, "num_args": {"i": "1"}, "padding": {"s": "U0FNRQ=="}, "fused_ops": {"list": {"s": ["Qmlhc0FkZA=="]}}, "explicit_paddings": {"list": {}}, "use_cudnn_on_gpu": {"b": true}, "epsilon": {"f": 0.0}, "strides": {"list": {"i": ["1", "1", "1", "1"]}}}}, {"name": "mixed/join", "op": "Concat", "input": ["mixed/join/concat_dim", "mixed/conv/batchnorm", "mixed/tower/conv_1/batchnorm", "mixed/tower_1/conv_2/batchnorm", "mixed/tower_2/conv/batchnorm"], "attr": {"T": {"type": "DT_FLOAT"}, "N": {"i": "4"}}}, {"name": "mixed/conv", "op": "Relu", "input": ["mixed/join"], "attr": {"T": {"type": "DT_FLOAT"}}}, {"name": "mixed_1/tower_2/pool", "op": "AvgPool", "input": ["mixed/conv"], "attr": {"padding": {"s": "U0FNRQ=="}, "ksize": {"list": {"i": ["1", "3", "3", "1"]}}, "T": {"type": "DT_FLOAT"}, "data_format": {"s": "TkhXQw=="}, "strides": {"list": {"i": ["1", "1", "1", "1"]}}}}, {"name": "mixed_1/conv/batchnorm", "op": "_FusedConv2D", "input": ["mixed/conv", "mixed_1/conv/Conv2D_weights", "mixed_1/conv/Conv2D_bn_offset"], "device": "/device:CPU:0", "attr": {"dilations": {"list": {"i": ["1", "1", "1", "1"]}}, "T": {"type": "DT_FLOAT"}, "data_format": {"s": "TkhXQw=="}, "num_args": {"i": "1"}, "padding": {"s": "U0FNRQ=="}, "fused_ops": {"list": {"s": ["Qmlhc0FkZA=="]}}, "explicit_paddings": {"list": {}}, "use_cudnn_on_gpu": {"b": true}, "epsilon": {"f": 0.0}, "strides": {"list": {"i": ["1", "1", "1", "1"]}}}}, {"name": "mixed_1/tower/conv", "op": "_FusedConv2D", "input": ["mixed/conv", "mixed_1/tower/conv/Conv2D_weights", "mixed_1/tower/conv/Conv2D_bn_offset"], "device": "/device:CPU:0", "attr": {"fused_ops": {"list": {"s": ["Qmlhc0FkZA==", "UmVsdQ=="]}}, "padding": {"s": "U0FNRQ=="}, "data_format": {"s": "TkhXQw=="}, "T": {"type": "DT_FLOAT"}, "num_args": {"i": "1"}, "strides": {"list": {"i": ["1", "1", "1", "1"]}}, "explicit_paddings": {"list": {}}, "epsilon": {"f": 0.0}, "use_cudnn_on_gpu": {"b": true}, "dilations": {"list": {"i": ["1", "1", "1", "1"]}}}}, {"name": "mixed_1/tower_1/conv", "op": "_FusedConv2D", "input": ["mixed/conv", "mixed_1/tower_1/conv/Conv2D_weights", "mixed_1/tower_1/conv/Conv2D_bn_offset"], "device": "/device:CPU:0", "attr": {"dilations": {"list": {"i": ["1", "1", "1", "1"]}}, "T": {"type": "DT_FLOAT"}, "data_format": {"s": "TkhXQw=="}, "num_args": {"i": "1"}, "padding": {"s": "U0FNRQ=="}, "fused_ops": {"list": {"s": ["Qmlhc0FkZA==", "UmVsdQ=="]}}, "explicit_paddings": {"list": {}}, "use_cudnn_on_gpu": {"b": true}, "epsilon": {"f": 0.0}, "strides": {"list": {"i": ["1", "1", "1", "1"]}}}}, {"name": "mixed_1/tower_2/conv/batchnorm", "op": "_FusedConv2D", "input": ["mixed_1/tower_2/pool", "mixed_1/tower_2/conv/Conv2D_weights", "mixed_1/tower_2/conv/Conv2D_bn_offset"], "device": "/device:CPU:0", "attr": {"dilations": {"list": {"i": ["1", "1", "1", "1"]}}, "T": {"type": "DT_FLOAT"}, "data_format": {"s": "TkhXQw=="}, "num_args": {"i": "1"}, "padding": {"s": "U0FNRQ=="}, "fused_ops": {"list": {"s": ["Qmlhc0FkZA=="]}}, "explicit_paddings": {"list": {}}, "use_cudnn_on_gpu": {"b": true}, "epsilon": {"f": 0.0}, "strides": {"list": {"i": ["1", "1", "1", "1"]}}}}, {"name": "mixed_1/tower/conv_1/batchnorm", "op": "_FusedConv2D", "input": ["mixed_1/tower/conv", "mixed_1/tower/conv_1/Conv2D_weights", "mixed_1/tower/conv_1/Conv2D_bn_offset"], "device": "/device:CPU:0", "attr": {"fused_ops": {"list": {"s": ["Qmlhc0FkZA=="]}}, "padding": {"s": "U0FNRQ=="}, "data_format": {"s": "TkhXQw=="}, "T": {"type": "DT_FLOAT"}, "num_args": {"i": "1"}, "strides": {"list": {"i": ["1", "1", "1", "1"]}}, "explicit_paddings": {"list": {}}, "epsilon": {"f": 0.0}, "use_cudnn_on_gpu": {"b": true}, "dilations": {"list": {"i": ["1", "1", "1", "1"]}}}}, {"name": "mixed_1/tower_1/conv_1", "op": "_FusedConv2D", "input": ["mixed_1/tower_1/conv", "mixed_1/tower_1/conv_1/Conv2D_weights", "mixed_1/tower_1/conv_1/Conv2D_bn_offset"], "device": "/device:CPU:0", "attr": {"fused_ops": {"list": {"s": ["Qmlhc0FkZA==", "UmVsdQ=="]}}, "padding": {"s": "U0FNRQ=="}, "data_format": {"s": "TkhXQw=="}, "T": {"type": "DT_FLOAT"}, "num_args": {"i": "1"}, "strides": {"list": {"i": ["1", "1", "1", "1"]}}, "explicit_paddings": {"list": {}}, "epsilon": {"f": 0.0}, "use_cudnn_on_gpu": {"b": true}, "dilations": {"list": {"i": ["1", "1", "1", "1"]}}}}, {"name": "mixed_1/tower_1/conv_2/batchnorm", "op": "_FusedConv2D", "input": ["mixed_1/tower_1/conv_1", "mixed_1/tower_1/conv_2/Conv2D_weights", "mixed_1/tower_1/conv_2/Conv2D_bn_offset"], "device": "/device:CPU:0", "attr": {"fused_ops": {"list": {"s": ["Qmlhc0FkZA=="]}}, "padding": {"s": "U0FNRQ=="}, "data_format": {"s": "TkhXQw=="}, "T": {"type": "DT_FLOAT"}, "num_args": {"i": "1"}, "strides": {"list": {"i": ["1", "1", "1", "1"]}}, "explicit_paddings": {"list": {}}, "epsilon": {"f": 0.0}, "use_cudnn_on_gpu": {"b": true}, "dilations": {"list": {"i": ["1", "1", "1", "1"]}}}}, {"name": "mixed_1/join", "op": "Concat", "input": ["mixed_1/join/concat_dim", "mixed_1/conv/batchnorm", "mixed_1/tower/conv_1/batchnorm", "mixed_1/tower_1/conv_2/batchnorm", "mixed_1/tower_2/conv/batchnorm"], "attr": {"N": {"i": "4"}, "T": {"type": "DT_FLOAT"}}}, {"name": "mixed_1/conv", "op": "Relu", "input": ["mixed_1/join"], "attr": {"T": {"type": "DT_FLOAT"}}}, {"name": "mixed_2/tower_2/pool", "op": "AvgPool", "input": ["mixed_1/conv"], "attr": {"ksize": {"list": {"i": ["1", "3", "3", "1"]}}, "data_format": {"s": "TkhXQw=="}, "T": {"type": "DT_FLOAT"}, "padding": {"s": "U0FNRQ=="}, "strides": {"list": {"i": ["1", "1", "1", "1"]}}}}, {"name": "mixed_2/conv/batchnorm", "op": "_FusedConv2D", "input": ["mixed_1/conv", "mixed_2/conv/Conv2D_weights", "mixed_2/conv/Conv2D_bn_offset"], "device": "/device:CPU:0", "attr": {"epsilon": {"f": 0.0}, "T": {"type": "DT_FLOAT"}, "padding": {"s": "U0FNRQ=="}, "explicit_paddings": {"list": {}}, "use_cudnn_on_gpu": {"b": true}, "dilations": {"list": {"i": ["1", "1", "1", "1"]}}, "fused_ops": {"list": {"s": ["Qmlhc0FkZA=="]}}, "strides": {"list": {"i": ["1", "1", "1", "1"]}}, "data_format": {"s": "TkhXQw=="}, "num_args": {"i": "1"}}}, {"name": "mixed_2/tower/conv", "op": "_FusedConv2D", "input": ["mixed_1/conv", "mixed_2/tower/conv/Conv2D_weights", "mixed_2/tower/conv/Conv2D_bn_offset"], "device": "/device:CPU:0", "attr": {"epsilon": {"f": 0.0}, "T": {"type": "DT_FLOAT"}, "padding": {"s": "U0FNRQ=="}, "explicit_paddings": {"list": {}}, "use_cudnn_on_gpu": {"b": true}, "dilations": {"list": {"i": ["1", "1", "1", "1"]}}, "fused_ops": {"list": {"s": ["Qmlhc0FkZA==", "UmVsdQ=="]}}, "strides": {"list": {"i": ["1", "1", "1", "1"]}}, "data_format": {"s": "TkhXQw=="}, "num_args": {"i": "1"}}}, {"name": "mixed_2/tower_1/conv", "op": "_FusedConv2D", "input": ["mixed_1/conv", "mixed_2/tower_1/conv/Conv2D_weights", "mixed_2/tower_1/conv/Conv2D_bn_offset"], "device": "/device:CPU:0", "attr": {"epsilon": {"f": 0.0}, "T": {"type": "DT_FLOAT"}, "padding": {"s": "U0FNRQ=="}, "explicit_paddings": {"list": {}}, "use_cudnn_on_gpu": {"b": true}, "dilations": {"list": {"i": ["1", "1", "1", "1"]}}, "fused_ops": {"list": {"s": ["Qmlhc0FkZA==", "UmVsdQ=="]}}, "strides": {"list": {"i": ["1", "1", "1", "1"]}}, "data_format": {"s": "TkhXQw=="}, "num_args": {"i": "1"}}}, {"name": "mixed_2/tower_2/conv/batchnorm", "op": "_FusedConv2D", "input": ["mixed_2/tower_2/pool", "mixed_2/tower_2/conv/Conv2D_weights", "mixed_2/tower_2/conv/Conv2D_bn_offset"], "device": "/device:CPU:0", "attr": {"strides": {"list": {"i": ["1", "1", "1", "1"]}}, "data_format": {"s": "TkhXQw=="}, "padding": {"s": "U0FNRQ=="}, "T": {"type": "DT_FLOAT"}, "fused_ops": {"list": {"s": ["Qmlhc0FkZA=="]}}, "num_args": {"i": "1"}, "explicit_paddings": {"list": {}}, "epsilon": {"f": 0.0}, "use_cudnn_on_gpu": {"b": true}, "dilations": {"list": {"i": ["1", "1", "1", "1"]}}}}, {"name": "mixed_2/tower/conv_1/batchnorm", "op": "_FusedConv2D", "input": ["mixed_2/tower/conv", "mixed_2/tower/conv_1/Conv2D_weights", "mixed_2/tower/conv_1/Conv2D_bn_offset"], "device": "/device:CPU:0", "attr": {"strides": {"list": {"i": ["1", "1", "1", "1"]}}, "data_format": {"s": "TkhXQw=="}, "padding": {"s": "U0FNRQ=="}, "T": {"type": "DT_FLOAT"}, "fused_ops": {"list": {"s": ["Qmlhc0FkZA=="]}}, "num_args": {"i": "1"}, "explicit_paddings": {"list": {}}, "epsilon": {"f": 0.0}, "use_cudnn_on_gpu": {"b": true}, "dilations": {"list": {"i": ["1", "1", "1", "1"]}}}}, {"name": "mixed_2/tower_1/conv_1", "op": "_FusedConv2D", "input": ["mixed_2/tower_1/conv", "mixed_2/tower_1/conv_1/Conv2D_weights", "mixed_2/tower_1/conv_1/Conv2D_bn_offset"], "device": "/device:CPU:0", "attr": {"strides": {"list": {"i": ["1", "1", "1", "1"]}}, "data_format": {"s": "TkhXQw=="}, "padding": {"s": "U0FNRQ=="}, "T": {"type": "DT_FLOAT"}, "fused_ops": {"list": {"s": ["Qmlhc0FkZA==", "UmVsdQ=="]}}, "num_args": {"i": "1"}, "explicit_paddings": {"list": {}}, "epsilon": {"f": 0.0}, "use_cudnn_on_gpu": {"b": true}, "dilations": {"list": {"i": ["1", "1", "1", "1"]}}}}, {"name": "mixed_2/tower_1/conv_2/batchnorm", "op": "_FusedConv2D", "input": ["mixed_2/tower_1/conv_1", "mixed_2/tower_1/conv_2/Conv2D_weights", "mixed_2/tower_1/conv_2/Conv2D_bn_offset"], "device": "/device:CPU:0", "attr": {"epsilon": {"f": 0.0}, "T": {"type": "DT_FLOAT"}, "padding": {"s": "U0FNRQ=="}, "explicit_paddings": {"list": {}}, "use_cudnn_on_gpu": {"b": true}, "dilations": {"list": {"i": ["1", "1", "1", "1"]}}, "fused_ops": {"list": {"s": ["Qmlhc0FkZA=="]}}, "strides": {"list": {"i": ["1", "1", "1", "1"]}}, "data_format": {"s": "TkhXQw=="}, "num_args": {"i": "1"}}}, {"name": "mixed_2/join", "op": "Concat", "input": ["mixed_2/join/concat_dim", "mixed_2/conv/batchnorm", "mixed_2/tower/conv_1/batchnorm", "mixed_2/tower_1/conv_2/batchnorm", "mixed_2/tower_2/conv/batchnorm"], "attr": {"T": {"type": "DT_FLOAT"}, "N": {"i": "4"}}}, {"name": "mixed_2/conv", "op": "Relu", "input": ["mixed_2/join"], "attr": {"T": {"type": "DT_FLOAT"}}}, {"name": "mixed_3/pool", "op": "MaxPool", "input": ["mixed_2/conv"], "attr": {"ksize": {"list": {"i": ["1", "3", "3", "1"]}}, "padding": {"s": "VkFMSUQ="}, "T": {"type": "DT_FLOAT"}, "strides": {"list": {"i": ["1", "2", "2", "1"]}}, "explicit_paddings": {"list": {}}, "data_format": {"s": "TkhXQw=="}}}, {"name": "mixed_3/conv", "op": "_FusedConv2D", "input": ["mixed_2/conv", "mixed_3/conv/Conv2D_weights", "mixed_3/conv/Conv2D_bn_offset"], "device": "/device:CPU:0", "attr": {"padding": {"s": "VkFMSUQ="}, "use_cudnn_on_gpu": {"b": true}, "T": {"type": "DT_FLOAT"}, "fused_ops": {"list": {"s": ["Qmlhc0FkZA==", "UmVsdQ=="]}}, "num_args": {"i": "1"}, "strides": {"list": {"i": ["1", "2", "2", "1"]}}, "dilations": {"list": {"i": ["1", "1", "1", "1"]}}, "data_format": {"s": "TkhXQw=="}, "explicit_paddings": {"list": {}}, "epsilon": {"f": 0.0}}}, {"name": "mixed_3/tower/conv", "op": "_FusedConv2D", "input": ["mixed_2/conv", "mixed_3/tower/conv/Conv2D_weights", "mixed_3/tower/conv/Conv2D_bn_offset"], "device": "/device:CPU:0", "attr": {"use_cudnn_on_gpu": {"b": true}, "padding": {"s": "U0FNRQ=="}, "num_args": {"i": "1"}, "T": {"type": "DT_FLOAT"}, "strides": {"list": {"i": ["1", "1", "1", "1"]}}, "fused_ops": {"list": {"s": ["Qmlhc0FkZA==", "UmVsdQ=="]}}, "dilations": {"list": {"i": ["1", "1", "1", "1"]}}, "explicit_paddings": {"list": {}}, "epsilon": {"f": 0.0}, "data_format": {"s": "TkhXQw=="}}}, {"name": "mixed_3/tower/conv_1", "op": "_FusedConv2D", "input": ["mixed_3/tower/conv", "mixed_3/tower/conv_1/Conv2D_weights", "mixed_3/tower/conv_1/Conv2D_bn_offset"], "device": "/device:CPU:0", "attr": {"num_args": {"i": "1"}, "strides": {"list": {"i": ["1", "1", "1", "1"]}}, "dilations": {"list": {"i": ["1", "1", "1", "1"]}}, "explicit_paddings": {"list": {}}, "padding": {"s": "U0FNRQ=="}, "epsilon": {"f": 0.0}, "T": {"type": "DT_FLOAT"}, "data_format": {"s": "TkhXQw=="}, "fused_ops": {"list": {"s": ["Qmlhc0FkZA==", "UmVsdQ=="]}}, "use_cudnn_on_gpu": {"b": true}}}, {"name": "mixed_3/tower/conv_2", "op": "_FusedConv2D", "input": ["mixed_3/tower/conv_1", "mixed_3/tower/conv_2/Conv2D_weights", "mixed_3/tower/conv_2/Conv2D_bn_offset"], "device": "/device:CPU:0", "attr": {"fused_ops": {"list": {"s": ["Qmlhc0FkZA==", "UmVsdQ=="]}}, "padding": {"s": "VkFMSUQ="}, "use_cudnn_on_gpu": {"b": true}, "strides": {"list": {"i": ["1", "2", "2", "1"]}}, "dilations": {"list": {"i": ["1", "1", "1", "1"]}}, "T": {"type": "DT_FLOAT"}, "num_args": {"i": "1"}, "epsilon": {"f": 0.0}, "data_format": {"s": "TkhXQw=="}, "explicit_paddings": {"list": {}}}}, {"name": "mixed_3/join", "op": "Concat", "input": ["mixed_3/join/concat_dim", "mixed_3/conv", "mixed_3/tower/conv_2", "mixed_3/pool"], "attr": {"N": {"i": "3"}, "T": {"type": "DT_FLOAT"}}}, {"name": "mixed_4/tower_2/pool", "op": "AvgPool", "input": ["mixed_3/join"], "attr": {"padding": {"s": "U0FNRQ=="}, "strides": {"list": {"i": ["1", "1", "1", "1"]}}, "T": {"type": "DT_FLOAT"}, "ksize": {"list": {"i": ["1", "3", "3", "1"]}}, "data_format": {"s": "TkhXQw=="}}}, {"name": "mixed_4/conv/batchnorm", "op": "_FusedConv2D", "input": ["mixed_3/join", "mixed_4/conv/Conv2D_weights", "mixed_4/conv/Conv2D_bn_offset"], "device": "/device:CPU:0", "attr": {"num_args": {"i": "1"}, "strides": {"list": {"i": ["1", "1", "1", "1"]}}, "dilations": {"list": {"i": ["1", "1", "1", "1"]}}, "explicit_paddings": {"list": {}}, "padding": {"s": "U0FNRQ=="}, "epsilon": {"f": 0.0}, "T": {"type": "DT_FLOAT"}, "data_format": {"s": "TkhXQw=="}, "fused_ops": {"list": {"s": ["Qmlhc0FkZA=="]}}, "use_cudnn_on_gpu": {"b": true}}}, {"name": "mixed_4/tower/conv", "op": "_FusedConv2D", "input": ["mixed_3/join", "mixed_4/tower/conv/Conv2D_weights", "mixed_4/tower/conv/Conv2D_bn_offset"], "device": "/device:CPU:0", "attr": {"fused_ops": {"list": {"s": ["Qmlhc0FkZA==", "UmVsdQ=="]}}, "padding": {"s": "U0FNRQ=="}, "use_cudnn_on_gpu": {"b": true}, "strides": {"list": {"i": ["1", "1", "1", "1"]}}, "dilations": {"list": {"i": ["1", "1", "1", "1"]}}, "T": {"type": "DT_FLOAT"}, "num_args": {"i": "1"}, "epsilon": {"f": 0.0}, "data_format": {"s": "TkhXQw=="}, "explicit_paddings": {"list": {}}}}, {"name": "mixed_4/tower_1/conv", "op": "_FusedConv2D", "input": ["mixed_3/join", "mixed_4/tower_1/conv/Conv2D_weights", "mixed_4/tower_1/conv/Conv2D_bn_offset"], "device": "/device:CPU:0", "attr": {"use_cudnn_on_gpu": {"b": true}, "padding": {"s": "U0FNRQ=="}, "num_args": {"i": "1"}, "T": {"type": "DT_FLOAT"}, "strides": {"list": {"i": ["1", "1", "1", "1"]}}, "fused_ops": {"list": {"s": ["Qmlhc0FkZA==", "UmVsdQ=="]}}, "dilations": {"list": {"i": ["1", "1", "1", "1"]}}, "explicit_paddings": {"list": {}}, "epsilon": {"f": 0.0}, "data_format": {"s": "TkhXQw=="}}}, {"name": "mixed_4/tower_2/conv/batchnorm", "op": "_FusedConv2D", "input": ["mixed_4/tower_2/pool", "mixed_4/tower_2/conv/Conv2D_weights", "mixed_4/tower_2/conv/Conv2D_bn_offset"], "device": "/device:CPU:0", "attr": {"num_args": {"i": "1"}, "strides": {"list": {"i": ["1", "1", "1", "1"]}}, "dilations": {"list": {"i": ["1", "1", "1", "1"]}}, "explicit_paddings": {"list": {}}, "padding": {"s": "U0FNRQ=="}, "epsilon": {"f": 0.0}, "T": {"type": "DT_FLOAT"}, "data_format": {"s": "TkhXQw=="}, "fused_ops": {"list": {"s": ["Qmlhc0FkZA=="]}}, "use_cudnn_on_gpu": {"b": true}}}, {"name": "mixed_4/tower/conv_1", "op": "_FusedConv2D", "input": ["mixed_4/tower/conv", "mixed_4/tower/conv_1/Conv2D_weights", "mixed_4/tower/conv_1/Conv2D_bn_offset"], "device": "/device:CPU:0", "attr": {"use_cudnn_on_gpu": {"b": true}, "padding": {"s": "U0FNRQ=="}, "num_args": {"i": "1"}, "T": {"type": "DT_FLOAT"}, "strides": {"list": {"i": ["1", "1", "1", "1"]}}, "fused_ops": {"list": {"s": ["Qmlhc0FkZA==", "UmVsdQ=="]}}, "dilations": {"list": {"i": ["1", "1", "1", "1"]}}, "explicit_paddings": {"list": {}}, "epsilon": {"f": 0.0}, "data_format": {"s": "TkhXQw=="}}}, {"name": "mixed_4/tower_1/conv_1", "op": "_FusedConv2D", "input": ["mixed_4/tower_1/conv", "mixed_4/tower_1/conv_1/Conv2D_weights", "mixed_4/tower_1/conv_1/Conv2D_bn_offset"], "device": "/device:CPU:0", "attr": {"num_args": {"i": "1"}, "T": {"type": "DT_FLOAT"}, "strides": {"list": {"i": ["1", "1", "1", "1"]}}, "fused_ops": {"list": {"s": ["Qmlhc0FkZA==", "UmVsdQ=="]}}, "dilations": {"list": {"i": ["1", "1", "1", "1"]}}, "explicit_paddings": {"list": {}}, "epsilon": {"f": 0.0}, "use_cudnn_on_gpu": {"b": true}, "data_format": {"s": "TkhXQw=="}, "padding": {"s": "U0FNRQ=="}}}, {"name": "mixed_4/tower/conv_2/batchnorm", "op": "_FusedConv2D", "input": ["mixed_4/tower/conv_1", "mixed_4/tower/conv_2/Conv2D_weights", "mixed_4/tower/conv_2/Conv2D_bn_offset"], "device": "/device:CPU:0", "attr": {"T": {"type": "DT_FLOAT"}, "num_args": {"i": "1"}, "dilations": {"list": {"i": ["1", "1", "1", "1"]}}, "epsilon": {"f": 0.0}, "data_format": {"s": "TkhXQw=="}, "fused_ops": {"list": {"s": ["Qmlhc0FkZA=="]}}, "explicit_paddings": {"list": {}}, "strides": {"list": {"i": ["1", "1", "1", "1"]}}, "padding": {"s": "U0FNRQ=="}, "use_cudnn_on_gpu": {"b": true}}}, {"name": "mixed_4/tower_1/conv_2", "op": "_FusedConv2D", "input": ["mixed_4/tower_1/conv_1", "mixed_4/tower_1/conv_2/Conv2D_weights", "mixed_4/tower_1/conv_2/Conv2D_bn_offset"], "device": "/device:CPU:0", "attr": {"num_args": {"i": "1"}, "strides": {"list": {"i": ["1", "1", "1", "1"]}}, "dilations": {"list": {"i": ["1", "1", "1", "1"]}}, "explicit_paddings": {"list": {}}, "padding": {"s": "U0FNRQ=="}, "epsilon": {"f": 0.0}, "T": {"type": "DT_FLOAT"}, "data_format": {"s": "TkhXQw=="}, "fused_ops": {"list": {"s": ["Qmlhc0FkZA==", "UmVsdQ=="]}}, "use_cudnn_on_gpu": {"b": true}}}, {"name": "mixed_4/tower_1/conv_3", "op": "_FusedConv2D", "input": ["mixed_4/tower_1/conv_2", "mixed_4/tower_1/conv_3/Conv2D_weights", "mixed_4/tower_1/conv_3/Conv2D_bn_offset"], "device": "/device:CPU:0", "attr": {"fused_ops": {"list": {"s": ["Qmlhc0FkZA==", "UmVsdQ=="]}}, "padding": {"s": "U0FNRQ=="}, "use_cudnn_on_gpu": {"b": true}, "strides": {"list": {"i": ["1", "1", "1", "1"]}}, "dilations": {"list": {"i": ["1", "1", "1", "1"]}}, "T": {"type": "DT_FLOAT"}, "num_args": {"i": "1"}, "epsilon": {"f": 0.0}, "data_format": {"s": "TkhXQw=="}, "explicit_paddings": {"list": {}}}}, {"name": "mixed_4/tower_1/conv_4/batchnorm", "op": "_FusedConv2D", "input": ["mixed_4/tower_1/conv_3", "mixed_4/tower_1/conv_4/Conv2D_weights", "mixed_4/tower_1/conv_4/Conv2D_bn_offset"], "device": "/device:CPU:0", "attr": {"T": {"type": "DT_FLOAT"}, "num_args": {"i": "1"}, "dilations": {"list": {"i": ["1", "1", "1", "1"]}}, "epsilon": {"f": 0.0}, "data_format": {"s": "TkhXQw=="}, "fused_ops": {"list": {"s": ["Qmlhc0FkZA=="]}}, "explicit_paddings": {"list": {}}, "strides": {"list": {"i": ["1", "1", "1", "1"]}}, "padding": {"s": "U0FNRQ=="}, "use_cudnn_on_gpu": {"b": true}}}, {"name": "mixed_4/join", "op": "Concat", "input": ["mixed_4/join/concat_dim", "mixed_4/conv/batchnorm", "mixed_4/tower/conv_2/batchnorm", "mixed_4/tower_1/conv_4/batchnorm", "mixed_4/tower_2/conv/batchnorm"], "attr": {"N": {"i": "4"}, "T": {"type": "DT_FLOAT"}}}, {"name": "mixed_4/conv", "op": "Relu", "input": ["mixed_4/join"], "attr": {"T": {"type": "DT_FLOAT"}}}, {"name": "mixed_5/tower_2/pool", "op": "AvgPool", "input": ["mixed_4/conv"], "attr": {"padding": {"s": "U0FNRQ=="}, "strides": {"list": {"i": ["1", "1", "1", "1"]}}, "T": {"type": "DT_FLOAT"}, "ksize": {"list": {"i": ["1", "3", "3", "1"]}}, "data_format": {"s": "TkhXQw=="}}}, {"name": "mixed_5/conv/batchnorm", "op": "_FusedConv2D", "input": ["mixed_4/conv", "mixed_5/conv/Conv2D_weights", "mixed_5/conv/Conv2D_bn_offset"], "device": "/device:CPU:0", "attr": {"num_args": {"i": "1"}, "strides": {"list": {"i": ["1", "1", "1", "1"]}}, "dilations": {"list": {"i": ["1", "1", "1", "1"]}}, "explicit_paddings": {"list": {}}, "padding": {"s": "U0FNRQ=="}, "epsilon": {"f": 0.0}, "T": {"type": "DT_FLOAT"}, "data_format": {"s": "TkhXQw=="}, "fused_ops": {"list": {"s": ["Qmlhc0FkZA=="]}}, "use_cudnn_on_gpu": {"b": true}}}, {"name": "mixed_5/tower/conv", "op": "_FusedConv2D", "input": ["mixed_4/conv", "mixed_5/tower/conv/Conv2D_weights", "mixed_5/tower/conv/Conv2D_bn_offset"], "device": "/device:CPU:0", "attr": {"num_args": {"i": "1"}, "strides": {"list": {"i": ["1", "1", "1", "1"]}}, "dilations": {"list": {"i": ["1", "1", "1", "1"]}}, "explicit_paddings": {"list": {}}, "padding": {"s": "U0FNRQ=="}, "epsilon": {"f": 0.0}, "T": {"type": "DT_FLOAT"}, "data_format": {"s": "TkhXQw=="}, "fused_ops": {"list": {"s": ["Qmlhc0FkZA==", "UmVsdQ=="]}}, "use_cudnn_on_gpu": {"b": true}}}, {"name": "mixed_5/tower_1/conv", "op": "_FusedConv2D", "input": ["mixed_4/conv", "mixed_5/tower_1/conv/Conv2D_weights", "mixed_5/tower_1/conv/Conv2D_bn_offset"], "device": "/device:CPU:0", "attr": {"T": {"type": "DT_FLOAT"}, "num_args": {"i": "1"}, "dilations": {"list": {"i": ["1", "1", "1", "1"]}}, "epsilon": {"f": 0.0}, "data_format": {"s": "TkhXQw=="}, "fused_ops": {"list": {"s": ["Qmlhc0FkZA==", "UmVsdQ=="]}}, "explicit_paddings": {"list": {}}, "strides": {"list": {"i": ["1", "1", "1", "1"]}}, "padding": {"s": "U0FNRQ=="}, "use_cudnn_on_gpu": {"b": true}}}, {"name": "mixed_5/tower_2/conv/batchnorm", "op": "_FusedConv2D", "input": ["mixed_5/tower_2/pool", "mixed_5/tower_2/conv/Conv2D_weights", "mixed_5/tower_2/conv/Conv2D_bn_offset"], "device": "/device:CPU:0", "attr": {"fused_ops": {"list": {"s": ["Qmlhc0FkZA=="]}}, "padding": {"s": "U0FNRQ=="}, "use_cudnn_on_gpu": {"b": true}, "strides": {"list": {"i": ["1", "1", "1", "1"]}}, "dilations": {"list": {"i": ["1", "1", "1", "1"]}}, "T": {"type": "DT_FLOAT"}, "num_args": {"i": "1"}, "epsilon": {"f": 0.0}, "data_format": {"s": "TkhXQw=="}, "explicit_paddings": {"list": {}}}}, {"name": "mixed_5/tower/conv_1", "op": "_FusedConv2D", "input": ["mixed_5/tower/conv", "mixed_5/tower/conv_1/Conv2D_weights", "mixed_5/tower/conv_1/Conv2D_bn_offset"], "device": "/device:CPU:0", "attr": {"num_args": {"i": "1"}, "strides": {"list": {"i": ["1", "1", "1", "1"]}}, "dilations": {"list": {"i": ["1", "1", "1", "1"]}}, "explicit_paddings": {"list": {}}, "padding": {"s": "U0FNRQ=="}, "epsilon": {"f": 0.0}, "T": {"type": "DT_FLOAT"}, "data_format": {"s": "TkhXQw=="}, "fused_ops": {"list": {"s": ["Qmlhc0FkZA==", "UmVsdQ=="]}}, "use_cudnn_on_gpu": {"b": true}}}, {"name": "mixed_5/tower_1/conv_1", "op": "_FusedConv2D", "input": ["mixed_5/tower_1/conv", "mixed_5/tower_1/conv_1/Conv2D_weights", "mixed_5/tower_1/conv_1/Conv2D_bn_offset"], "device": "/device:CPU:0", "attr": {"num_args": {"i": "1"}, "strides": {"list": {"i": ["1", "1", "1", "1"]}}, "dilations": {"list": {"i": ["1", "1", "1", "1"]}}, "explicit_paddings": {"list": {}}, "padding": {"s": "U0FNRQ=="}, "epsilon": {"f": 0.0}, "T": {"type": "DT_FLOAT"}, "data_format": {"s": "TkhXQw=="}, "fused_ops": {"list": {"s": ["Qmlhc0FkZA==", "UmVsdQ=="]}}, "use_cudnn_on_gpu": {"b": true}}}, {"name": "mixed_5/tower/conv_2/batchnorm", "op": "_FusedConv2D", "input": ["mixed_5/tower/conv_1", "mixed_5/tower/conv_2/Conv2D_weights", "mixed_5/tower/conv_2/Conv2D_bn_offset"], "device": "/device:CPU:0", "attr": {"use_cudnn_on_gpu": {"b": true}, "padding": {"s": "U0FNRQ=="}, "num_args": {"i": "1"}, "T": {"type": "DT_FLOAT"}, "strides": {"list": {"i": ["1", "1", "1", "1"]}}, "fused_ops": {"list": {"s": ["Qmlhc0FkZA=="]}}, "dilations": {"list": {"i": ["1", "1", "1", "1"]}}, "explicit_paddings": {"list": {}}, "epsilon": {"f": 0.0}, "data_format": {"s": "TkhXQw=="}}}, {"name": "mixed_5/tower_1/conv_2", "op": "_FusedConv2D", "input": ["mixed_5/tower_1/conv_1", "mixed_5/tower_1/conv_2/Conv2D_weights", "mixed_5/tower_1/conv_2/Conv2D_bn_offset"], "device": "/device:CPU:0", "attr": {"num_args": {"i": "1"}, "strides": {"list": {"i": ["1", "1", "1", "1"]}}, "dilations": {"list": {"i": ["1", "1", "1", "1"]}}, "explicit_paddings": {"list": {}}, "padding": {"s": "U0FNRQ=="}, "epsilon": {"f": 0.0}, "T": {"type": "DT_FLOAT"}, "data_format": {"s": "TkhXQw=="}, "fused_ops": {"list": {"s": ["Qmlhc0FkZA==", "UmVsdQ=="]}}, "use_cudnn_on_gpu": {"b": true}}}, {"name": "mixed_5/tower_1/conv_3", "op": "_FusedConv2D", "input": ["mixed_5/tower_1/conv_2", "mixed_5/tower_1/conv_3/Conv2D_weights", "mixed_5/tower_1/conv_3/Conv2D_bn_offset"], "device": "/device:CPU:0", "attr": {"num_args": {"i": "1"}, "strides": {"list": {"i": ["1", "1", "1", "1"]}}, "dilations": {"list": {"i": ["1", "1", "1", "1"]}}, "explicit_paddings": {"list": {}}, "padding": {"s": "U0FNRQ=="}, "epsilon": {"f": 0.0}, "T": {"type": "DT_FLOAT"}, "data_format": {"s": "TkhXQw=="}, "fused_ops": {"list": {"s": ["Qmlhc0FkZA==", "UmVsdQ=="]}}, "use_cudnn_on_gpu": {"b": true}}}, {"name": "mixed_5/tower_1/conv_4/batchnorm", "op": "_FusedConv2D", "input": ["mixed_5/tower_1/conv_3", "mixed_5/tower_1/conv_4/Conv2D_weights", "mixed_5/tower_1/conv_4/Conv2D_bn_offset"], "device": "/device:CPU:0", "attr": {"use_cudnn_on_gpu": {"b": true}, "padding": {"s": "U0FNRQ=="}, "num_args": {"i": "1"}, "T": {"type": "DT_FLOAT"}, "strides": {"list": {"i": ["1", "1", "1", "1"]}}, "fused_ops": {"list": {"s": ["Qmlhc0FkZA=="]}}, "dilations": {"list": {"i": ["1", "1", "1", "1"]}}, "explicit_paddings": {"list": {}}, "epsilon": {"f": 0.0}, "data_format": {"s": "TkhXQw=="}}}, {"name": "mixed_5/join", "op": "Concat", "input": ["mixed_5/join/concat_dim", "mixed_5/conv/batchnorm", "mixed_5/tower/conv_2/batchnorm", "mixed_5/tower_1/conv_4/batchnorm", "mixed_5/tower_2/conv/batchnorm"], "attr": {"N": {"i": "4"}, "T": {"type": "DT_FLOAT"}}}, {"name": "mixed_5/conv", "op": "Relu", "input": ["mixed_5/join"], "attr": {"T": {"type": "DT_FLOAT"}}}, {"name": "mixed_6/tower_2/pool", "op": "AvgPool", "input": ["mixed_5/conv"], "attr": {"data_format": {"s": "TkhXQw=="}, "strides": {"list": {"i": ["1", "1", "1", "1"]}}, "T": {"type": "DT_FLOAT"}, "ksize": {"list": {"i": ["1", "3", "3", "1"]}}, "padding": {"s": "U0FNRQ=="}}}, {"name": "mixed_6/conv/batchnorm", "op": "_FusedConv2D", "input": ["mixed_5/conv", "mixed_6/conv/Conv2D_weights", "mixed_6/conv/Conv2D_bn_offset"], "device": "/device:CPU:0", "attr": {"num_args": {"i": "1"}, "T": {"type": "DT_FLOAT"}, "strides": {"list": {"i": ["1", "1", "1", "1"]}}, "fused_ops": {"list": {"s": ["Qmlhc0FkZA=="]}}, "dilations": {"list": {"i": ["1", "1", "1", "1"]}}, "explicit_paddings": {"list": {}}, "epsilon": {"f": 0.0}, "use_cudnn_on_gpu": {"b": true}, "data_format": {"s": "TkhXQw=="}, "padding": {"s": "U0FNRQ=="}}}, {"name": "mixed_6/tower/conv", "op": "_FusedConv2D", "input": ["mixed_5/conv", "mixed_6/tower/conv/Conv2D_weights", "mixed_6/tower/conv/Conv2D_bn_offset"], "device": "/device:CPU:0", "attr": {"num_args": {"i": "1"}, "strides": {"list": {"i": ["1", "1", "1", "1"]}}, "dilations": {"list": {"i": ["1", "1", "1", "1"]}}, "explicit_paddings": {"list": {}}, "padding": {"s": "U0FNRQ=="}, "epsilon": {"f": 0.0}, "T": {"type": "DT_FLOAT"}, "data_format": {"s": "TkhXQw=="}, "fused_ops": {"list": {"s": ["Qmlhc0FkZA==", "UmVsdQ=="]}}, "use_cudnn_on_gpu": {"b": true}}}, {"name": "mixed_6/tower_1/conv", "op": "_FusedConv2D", "input": ["mixed_5/conv", "mixed_6/tower_1/conv/Conv2D_weights", "mixed_6/tower_1/conv/Conv2D_bn_offset"], "device": "/device:CPU:0", "attr": {"fused_ops": {"list": {"s": ["Qmlhc0FkZA==", "UmVsdQ=="]}}, "padding": {"s": "U0FNRQ=="}, "use_cudnn_on_gpu": {"b": true}, "strides": {"list": {"i": ["1", "1", "1", "1"]}}, "dilations": {"list": {"i": ["1", "1", "1", "1"]}}, "T": {"type": "DT_FLOAT"}, "num_args": {"i": "1"}, "epsilon": {"f": 0.0}, "data_format": {"s": "TkhXQw=="}, "explicit_paddings": {"list": {}}}}, {"name": "mixed_6/tower_2/conv/batchnorm", "op": "_FusedConv2D", "input": ["mixed_6/tower_2/pool", "mixed_6/tower_2/conv/Conv2D_weights", "mixed_6/tower_2/conv/Conv2D_bn_offset"], "device": "/device:CPU:0", "attr": {"num_args": {"i": "1"}, "T": {"type": "DT_FLOAT"}, "strides": {"list": {"i": ["1", "1", "1", "1"]}}, "fused_ops": {"list": {"s": ["Qmlhc0FkZA=="]}}, "dilations": {"list": {"i": ["1", "1", "1", "1"]}}, "explicit_paddings": {"list": {}}, "epsilon": {"f": 0.0}, "use_cudnn_on_gpu": {"b": true}, "data_format": {"s": "TkhXQw=="}, "padding": {"s": "U0FNRQ=="}}}, {"name": "mixed_6/tower/conv_1", "op": "_FusedConv2D", "input": ["mixed_6/tower/conv", "mixed_6/tower/conv_1/Conv2D_weights", "mixed_6/tower/conv_1/Conv2D_bn_offset"], "device": "/device:CPU:0", "attr": {"num_args": {"i": "1"}, "strides": {"list": {"i": ["1", "1", "1", "1"]}}, "dilations": {"list": {"i": ["1", "1", "1", "1"]}}, "explicit_paddings": {"list": {}}, "padding": {"s": "U0FNRQ=="}, "epsilon": {"f": 0.0}, "T": {"type": "DT_FLOAT"}, "data_format": {"s": "TkhXQw=="}, "fused_ops": {"list": {"s": ["Qmlhc0FkZA==", "UmVsdQ=="]}}, "use_cudnn_on_gpu": {"b": true}}}, {"name": "mixed_6/tower_1/conv_1", "op": "_FusedConv2D", "input": ["mixed_6/tower_1/conv", "mixed_6/tower_1/conv_1/Conv2D_weights", "mixed_6/tower_1/conv_1/Conv2D_bn_offset"], "device": "/device:CPU:0", "attr": {"num_args": {"i": "1"}, "T": {"type": "DT_FLOAT"}, "strides": {"list": {"i": ["1", "1", "1", "1"]}}, "fused_ops": {"list": {"s": ["Qmlhc0FkZA==", "UmVsdQ=="]}}, "dilations": {"list": {"i": ["1", "1", "1", "1"]}}, "explicit_paddings": {"list": {}}, "epsilon": {"f": 0.0}, "use_cudnn_on_gpu": {"b": true}, "data_format": {"s": "TkhXQw=="}, "padding": {"s": "U0FNRQ=="}}}, {"name": "mixed_6/tower/conv_2/batchnorm", "op": "_FusedConv2D", "input": ["mixed_6/tower/conv_1", "mixed_6/tower/conv_2/Conv2D_weights", "mixed_6/tower/conv_2/Conv2D_bn_offset"], "device": "/device:CPU:0", "attr": {"num_args": {"i": "1"}, "strides": {"list": {"i": ["1", "1", "1", "1"]}}, "dilations": {"list": {"i": ["1", "1", "1", "1"]}}, "explicit_paddings": {"list": {}}, "padding": {"s": "U0FNRQ=="}, "epsilon": {"f": 0.0}, "T": {"type": "DT_FLOAT"}, "data_format": {"s": "TkhXQw=="}, "fused_ops": {"list": {"s": ["Qmlhc0FkZA=="]}}, "use_cudnn_on_gpu": {"b": true}}}, {"name": "mixed_6/tower_1/conv_2", "op": "_FusedConv2D", "input": ["mixed_6/tower_1/conv_1", "mixed_6/tower_1/conv_2/Conv2D_weights", "mixed_6/tower_1/conv_2/Conv2D_bn_offset"], "device": "/device:CPU:0", "attr": {"use_cudnn_on_gpu": {"b": true}, "padding": {"s": "U0FNRQ=="}, "num_args": {"i": "1"}, "T": {"type": "DT_FLOAT"}, "strides": {"list": {"i": ["1", "1", "1", "1"]}}, "fused_ops": {"list": {"s": ["Qmlhc0FkZA==", "UmVsdQ=="]}}, "dilations": {"list": {"i": ["1", "1", "1", "1"]}}, "explicit_paddings": {"list": {}}, "epsilon": {"f": 0.0}, "data_format": {"s": "TkhXQw=="}}}, {"name": "mixed_6/tower_1/conv_3", "op": "_FusedConv2D", "input": ["mixed_6/tower_1/conv_2", "mixed_6/tower_1/conv_3/Conv2D_weights", "mixed_6/tower_1/conv_3/Conv2D_bn_offset"], "device": "/device:CPU:0", "attr": {"num_args": {"i": "1"}, "T": {"type": "DT_FLOAT"}, "strides": {"list": {"i": ["1", "1", "1", "1"]}}, "fused_ops": {"list": {"s": ["Qmlhc0FkZA==", "UmVsdQ=="]}}, "dilations": {"list": {"i": ["1", "1", "1", "1"]}}, "explicit_paddings": {"list": {}}, "epsilon": {"f": 0.0}, "use_cudnn_on_gpu": {"b": true}, "data_format": {"s": "TkhXQw=="}, "padding": {"s": "U0FNRQ=="}}}, {"name": "mixed_6/tower_1/conv_4/batchnorm", "op": "_FusedConv2D", "input": ["mixed_6/tower_1/conv_3", "mixed_6/tower_1/conv_4/Conv2D_weights", "mixed_6/tower_1/conv_4/Conv2D_bn_offset"], "device": "/device:CPU:0", "attr": {"use_cudnn_on_gpu": {"b": true}, "padding": {"s": "U0FNRQ=="}, "num_args": {"i": "1"}, "T": {"type": "DT_FLOAT"}, "strides": {"list": {"i": ["1", "1", "1", "1"]}}, "fused_ops": {"list": {"s": ["Qmlhc0FkZA=="]}}, "dilations": {"list": {"i": ["1", "1", "1", "1"]}}, "explicit_paddings": {"list": {}}, "epsilon": {"f": 0.0}, "data_format": {"s": "TkhXQw=="}}}, {"name": "mixed_6/join", "op": "Concat", "input": ["mixed_6/join/concat_dim", "mixed_6/conv/batchnorm", "mixed_6/tower/conv_2/batchnorm", "mixed_6/tower_1/conv_4/batchnorm", "mixed_6/tower_2/conv/batchnorm"], "attr": {"T": {"type": "DT_FLOAT"}, "N": {"i": "4"}}}, {"name": "mixed_6/conv", "op": "Relu", "input": ["mixed_6/join"], "attr": {"T": {"type": "DT_FLOAT"}}}, {"name": "mixed_7/tower_2/pool", "op": "AvgPool", "input": ["mixed_6/conv"], "attr": {"data_format": {"s": "TkhXQw=="}, "strides": {"list": {"i": ["1", "1", "1", "1"]}}, "T": {"type": "DT_FLOAT"}, "ksize": {"list": {"i": ["1", "3", "3", "1"]}}, "padding": {"s": "U0FNRQ=="}}}, {"name": "mixed_7/conv/batchnorm", "op": "_FusedConv2D", "input": ["mixed_6/conv", "mixed_7/conv/Conv2D_weights", "mixed_7/conv/Conv2D_bn_offset"], "device": "/device:CPU:0", "attr": {"num_args": {"i": "1"}, "T": {"type": "DT_FLOAT"}, "strides": {"list": {"i": ["1", "1", "1", "1"]}}, "fused_ops": {"list": {"s": ["Qmlhc0FkZA=="]}}, "dilations": {"list": {"i": ["1", "1", "1", "1"]}}, "explicit_paddings": {"list": {}}, "epsilon": {"f": 0.0}, "use_cudnn_on_gpu": {"b": true}, "data_format": {"s": "TkhXQw=="}, "padding": {"s": "U0FNRQ=="}}}, {"name": "mixed_7/tower/conv", "op": "_FusedConv2D", "input": ["mixed_6/conv", "mixed_7/tower/conv/Conv2D_weights", "mixed_7/tower/conv/Conv2D_bn_offset"], "device": "/device:CPU:0", "attr": {"num_args": {"i": "1"}, "T": {"type": "DT_FLOAT"}, "strides": {"list": {"i": ["1", "1", "1", "1"]}}, "fused_ops": {"list": {"s": ["Qmlhc0FkZA==", "UmVsdQ=="]}}, "dilations": {"list": {"i": ["1", "1", "1", "1"]}}, "explicit_paddings": {"list": {}}, "epsilon": {"f": 0.0}, "use_cudnn_on_gpu": {"b": true}, "data_format": {"s": "TkhXQw=="}, "padding": {"s": "U0FNRQ=="}}}, {"name": "mixed_7/tower_1/conv", "op": "_FusedConv2D", "input": ["mixed_6/conv", "mixed_7/tower_1/conv/Conv2D_weights", "mixed_7/tower_1/conv/Conv2D_bn_offset"], "device": "/device:CPU:0", "attr": {"num_args": {"i": "1"}, "T": {"type": "DT_FLOAT"}, "strides": {"list": {"i": ["1", "1", "1", "1"]}}, "fused_ops": {"list": {"s": ["Qmlhc0FkZA==", "UmVsdQ=="]}}, "dilations": {"list": {"i": ["1", "1", "1", "1"]}}, "explicit_paddings": {"list": {}}, "epsilon": {"f": 0.0}, "use_cudnn_on_gpu": {"b": true}, "data_format": {"s": "TkhXQw=="}, "padding": {"s": "U0FNRQ=="}}}, {"name": "mixed_7/tower_2/conv/batchnorm", "op": "_FusedConv2D", "input": ["mixed_7/tower_2/pool", "mixed_7/tower_2/conv/Conv2D_weights", "mixed_7/tower_2/conv/Conv2D_bn_offset"], "device": "/device:CPU:0", "attr": {"num_args": {"i": "1"}, "T": {"type": "DT_FLOAT"}, "strides": {"list": {"i": ["1", "1", "1", "1"]}}, "fused_ops": {"list": {"s": ["Qmlhc0FkZA=="]}}, "dilations": {"list": {"i": ["1", "1", "1", "1"]}}, "explicit_paddings": {"list": {}}, "epsilon": {"f": 0.0}, "use_cudnn_on_gpu": {"b": true}, "data_format": {"s": "TkhXQw=="}, "padding": {"s": "U0FNRQ=="}}}, {"name": "mixed_7/tower/conv_1", "op": "_FusedConv2D", "input": ["mixed_7/tower/conv", "mixed_7/tower/conv_1/Conv2D_weights", "mixed_7/tower/conv_1/Conv2D_bn_offset"], "device": "/device:CPU:0", "attr": {"fused_ops": {"list": {"s": ["Qmlhc0FkZA==", "UmVsdQ=="]}}, "padding": {"s": "U0FNRQ=="}, "use_cudnn_on_gpu": {"b": true}, "strides": {"list": {"i": ["1", "1", "1", "1"]}}, "dilations": {"list": {"i": ["1", "1", "1", "1"]}}, "T": {"type": "DT_FLOAT"}, "num_args": {"i": "1"}, "epsilon": {"f": 0.0}, "data_format": {"s": "TkhXQw=="}, "explicit_paddings": {"list": {}}}}, {"name": "mixed_7/tower_1/conv_1", "op": "_FusedConv2D", "input": ["mixed_7/tower_1/conv", "mixed_7/tower_1/conv_1/Conv2D_weights", "mixed_7/tower_1/conv_1/Conv2D_bn_offset"], "device": "/device:CPU:0", "attr": {"use_cudnn_on_gpu": {"b": true}, "padding": {"s": "U0FNRQ=="}, "num_args": {"i": "1"}, "T": {"type": "DT_FLOAT"}, "strides": {"list": {"i": ["1", "1", "1", "1"]}}, "fused_ops": {"list": {"s": ["Qmlhc0FkZA==", "UmVsdQ=="]}}, "dilations": {"list": {"i": ["1", "1", "1", "1"]}}, "explicit_paddings": {"list": {}}, "epsilon": {"f": 0.0}, "data_format": {"s": "TkhXQw=="}}}, {"name": "mixed_7/tower/conv_2/batchnorm", "op": "_FusedConv2D", "input": ["mixed_7/tower/conv_1", "mixed_7/tower/conv_2/Conv2D_weights", "mixed_7/tower/conv_2/Conv2D_bn_offset"], "device": "/device:CPU:0", "attr": {"use_cudnn_on_gpu": {"b": true}, "padding": {"s": "U0FNRQ=="}, "num_args": {"i": "1"}, "T": {"type": "DT_FLOAT"}, "strides": {"list": {"i": ["1", "1", "1", "1"]}}, "fused_ops": {"list": {"s": ["Qmlhc0FkZA=="]}}, "dilations": {"list": {"i": ["1", "1", "1", "1"]}}, "explicit_paddings": {"list": {}}, "epsilon": {"f": 0.0}, "data_format": {"s": "TkhXQw=="}}}, {"name": "mixed_7/tower_1/conv_2", "op": "_FusedConv2D", "input": ["mixed_7/tower_1/conv_1", "mixed_7/tower_1/conv_2/Conv2D_weights", "mixed_7/tower_1/conv_2/Conv2D_bn_offset"], "device": "/device:CPU:0", "attr": {"fused_ops": {"list": {"s": ["Qmlhc0FkZA==", "UmVsdQ=="]}}, "padding": {"s": "U0FNRQ=="}, "use_cudnn_on_gpu": {"b": true}, "strides": {"list": {"i": ["1", "1", "1", "1"]}}, "dilations": {"list": {"i": ["1", "1", "1", "1"]}}, "T": {"type": "DT_FLOAT"}, "num_args": {"i": "1"}, "epsilon": {"f": 0.0}, "data_format": {"s": "TkhXQw=="}, "explicit_paddings": {"list": {}}}}, {"name": "mixed_7/tower_1/conv_3", "op": "_FusedConv2D", "input": ["mixed_7/tower_1/conv_2", "mixed_7/tower_1/conv_3/Conv2D_weights", "mixed_7/tower_1/conv_3/Conv2D_bn_offset"], "device": "/device:CPU:0", "attr": {"fused_ops": {"list": {"s": ["Qmlhc0FkZA==", "UmVsdQ=="]}}, "padding": {"s": "U0FNRQ=="}, "use_cudnn_on_gpu": {"b": true}, "strides": {"list": {"i": ["1", "1", "1", "1"]}}, "dilations": {"list": {"i": ["1", "1", "1", "1"]}}, "T": {"type": "DT_FLOAT"}, "num_args": {"i": "1"}, "epsilon": {"f": 0.0}, "data_format": {"s": "TkhXQw=="}, "explicit_paddings": {"list": {}}}}, {"name": "mixed_7/tower_1/conv_4/batchnorm", "op": "_FusedConv2D", "input": ["mixed_7/tower_1/conv_3", "mixed_7/tower_1/conv_4/Conv2D_weights", "mixed_7/tower_1/conv_4/Conv2D_bn_offset"], "device": "/device:CPU:0", "attr": {"fused_ops": {"list": {"s": ["Qmlhc0FkZA=="]}}, "padding": {"s": "U0FNRQ=="}, "use_cudnn_on_gpu": {"b": true}, "strides": {"list": {"i": ["1", "1", "1", "1"]}}, "dilations": {"list": {"i": ["1", "1", "1", "1"]}}, "T": {"type": "DT_FLOAT"}, "num_args": {"i": "1"}, "epsilon": {"f": 0.0}, "data_format": {"s": "TkhXQw=="}, "explicit_paddings": {"list": {}}}}, {"name": "mixed_7/join", "op": "Concat", "input": ["mixed_7/join/concat_dim", "mixed_7/conv/batchnorm", "mixed_7/tower/conv_2/batchnorm", "mixed_7/tower_1/conv_4/batchnorm", "mixed_7/tower_2/conv/batchnorm"], "attr": {"T": {"type": "DT_FLOAT"}, "N": {"i": "4"}}}, {"name": "mixed_7/conv", "op": "Relu", "input": ["mixed_7/join"], "attr": {"T": {"type": "DT_FLOAT"}}}, {"name": "mixed_8/pool", "op": "MaxPool", "input": ["mixed_7/conv"], "attr": {"ksize": {"list": {"i": ["1", "3", "3", "1"]}}, "T": {"type": "DT_FLOAT"}, "strides": {"list": {"i": ["1", "2", "2", "1"]}}, "explicit_paddings": {"list": {}}, "padding": {"s": "VkFMSUQ="}, "data_format": {"s": "TkhXQw=="}}}, {"name": "mixed_8/tower/conv", "op": "_FusedConv2D", "input": ["mixed_7/conv", "mixed_8/tower/conv/Conv2D_weights", "mixed_8/tower/conv/Conv2D_bn_offset"], "device": "/device:CPU:0", "attr": {"num_args": {"i": "1"}, "epsilon": {"f": 0.0}, "T": {"type": "DT_FLOAT"}, "strides": {"list": {"i": ["1", "1", "1", "1"]}}, "dilations": {"list": {"i": ["1", "1", "1", "1"]}}, "padding": {"s": "U0FNRQ=="}, "explicit_paddings": {"list": {}}, "use_cudnn_on_gpu": {"b": true}, "data_format": {"s": "TkhXQw=="}, "fused_ops": {"list": {"s": ["Qmlhc0FkZA==", "UmVsdQ=="]}}}}, {"name": "mixed_8/tower_1/conv", "op": "_FusedConv2D", "input": ["mixed_7/conv", "mixed_8/tower_1/conv/Conv2D_weights", "mixed_8/tower_1/conv/Conv2D_bn_offset"], "device": "/device:CPU:0", "attr": {"num_args": {"i": "1"}, "epsilon": {"f": 0.0}, "T": {"type": "DT_FLOAT"}, "strides": {"list": {"i": ["1", "1", "1", "1"]}}, "dilations": {"list": {"i": ["1", "1", "1", "1"]}}, "padding": {"s": "U0FNRQ=="}, "explicit_paddings": {"list": {}}, "use_cudnn_on_gpu": {"b": true}, "data_format": {"s": "TkhXQw=="}, "fused_ops": {"list": {"s": ["Qmlhc0FkZA==", "UmVsdQ=="]}}}}, {"name": "mixed_8/tower/conv_1", "op": "_FusedConv2D", "input": ["mixed_8/tower/conv", "mixed_8/tower/conv_1/Conv2D_weights", "mixed_8/tower/conv_1/Conv2D_bn_offset"], "device": "/device:CPU:0", "attr": {"num_args": {"i": "1"}, "epsilon": {"f": 0.0}, "T": {"type": "DT_FLOAT"}, "strides": {"list": {"i": ["1", "2", "2", "1"]}}, "dilations": {"list": {"i": ["1", "1", "1", "1"]}}, "padding": {"s": "VkFMSUQ="}, "explicit_paddings": {"list": {}}, "use_cudnn_on_gpu": {"b": true}, "data_format": {"s": "TkhXQw=="}, "fused_ops": {"list": {"s": ["Qmlhc0FkZA==", "UmVsdQ=="]}}}}, {"name": "mixed_8/tower_1/conv_1", "op": "_FusedConv2D", "input": ["mixed_8/tower_1/conv", "mixed_8/tower_1/conv_1/Conv2D_weights", "mixed_8/tower_1/conv_1/Conv2D_bn_offset"], "device": "/device:CPU:0", "attr": {"num_args": {"i": "1"}, "epsilon": {"f": 0.0}, "T": {"type": "DT_FLOAT"}, "strides": {"list": {"i": ["1", "1", "1", "1"]}}, "dilations": {"list": {"i": ["1", "1", "1", "1"]}}, "padding": {"s": "U0FNRQ=="}, "explicit_paddings": {"list": {}}, "use_cudnn_on_gpu": {"b": true}, "data_format": {"s": "TkhXQw=="}, "fused_ops": {"list": {"s": ["Qmlhc0FkZA==", "UmVsdQ=="]}}}}, {"name": "mixed_8/tower_1/conv_2", "op": "_FusedConv2D", "input": ["mixed_8/tower_1/conv_1", "mixed_8/tower_1/conv_2/Conv2D_weights", "mixed_8/tower_1/conv_2/Conv2D_bn_offset"], "device": "/device:CPU:0", "attr": {"fused_ops": {"list": {"s": ["Qmlhc0FkZA==", "UmVsdQ=="]}}, "use_cudnn_on_gpu": {"b": true}, "num_args": {"i": "1"}, "epsilon": {"f": 0.0}, "T": {"type": "DT_FLOAT"}, "strides": {"list": {"i": ["1", "1", "1", "1"]}}, "dilations": {"list": {"i": ["1", "1", "1", "1"]}}, "explicit_paddings": {"list": {}}, "padding": {"s": "U0FNRQ=="}, "data_format": {"s": "TkhXQw=="}}}, {"name": "mixed_8/tower_1/conv_3", "op": "_FusedConv2D", "input": ["mixed_8/tower_1/conv_2", "mixed_8/tower_1/conv_3/Conv2D_weights", "mixed_8/tower_1/conv_3/Conv2D_bn_offset"], "device": "/device:CPU:0", "attr": {"fused_ops": {"list": {"s": ["Qmlhc0FkZA==", "UmVsdQ=="]}}, "use_cudnn_on_gpu": {"b": true}, "num_args": {"i": "1"}, "epsilon": {"f": 0.0}, "T": {"type": "DT_FLOAT"}, "strides": {"list": {"i": ["1", "2", "2", "1"]}}, "dilations": {"list": {"i": ["1", "1", "1", "1"]}}, "explicit_paddings": {"list": {}}, "padding": {"s": "VkFMSUQ="}, "data_format": {"s": "TkhXQw=="}}}, {"name": "mixed_8/join", "op": "Concat", "input": ["mixed_8/join/concat_dim", "mixed_8/tower/conv_1", "mixed_8/tower_1/conv_3", "mixed_8/pool"], "attr": {"T": {"type": "DT_FLOAT"}, "N": {"i": "3"}}}, {"name": "mixed_9/tower_2/pool", "op": "AvgPool", "input": ["mixed_8/join"], "attr": {"data_format": {"s": "TkhXQw=="}, "strides": {"list": {"i": ["1", "1", "1", "1"]}}, "T": {"type": "DT_FLOAT"}, "ksize": {"list": {"i": ["1", "3", "3", "1"]}}, "padding": {"s": "U0FNRQ=="}}}, {"name": "mixed_9/conv/batchnorm", "op": "_FusedConv2D", "input": ["mixed_8/join", "mixed_9/conv/Conv2D_weights", "mixed_9/conv/Conv2D_bn_offset"], "device": "/device:CPU:0", "attr": {"T": {"type": "DT_FLOAT"}, "padding": {"s": "U0FNRQ=="}, "epsilon": {"f": 0.0}, "fused_ops": {"list": {"s": ["Qmlhc0FkZA=="]}}, "num_args": {"i": "1"}, "dilations": {"list": {"i": ["1", "1", "1", "1"]}}, "strides": {"list": {"i": ["1", "1", "1", "1"]}}, "data_format": {"s": "TkhXQw=="}, "explicit_paddings": {"list": {}}, "use_cudnn_on_gpu": {"b": true}}}, {"name": "mixed_9/tower/conv", "op": "_FusedConv2D", "input": ["mixed_8/join", "mixed_9/tower/conv/Conv2D_weights", "mixed_9/tower/conv/Conv2D_bn_offset"], "device": "/device:CPU:0", "attr": {"fused_ops": {"list": {"s": ["Qmlhc0FkZA==", "UmVsdQ=="]}}, "use_cudnn_on_gpu": {"b": true}, "num_args": {"i": "1"}, "epsilon": {"f": 0.0}, "T": {"type": "DT_FLOAT"}, "strides": {"list": {"i": ["1", "1", "1", "1"]}}, "dilations": {"list": {"i": ["1", "1", "1", "1"]}}, "explicit_paddings": {"list": {}}, "padding": {"s": "U0FNRQ=="}, "data_format": {"s": "TkhXQw=="}}}, {"name": "mixed_9/tower_1/conv", "op": "_FusedConv2D", "input": ["mixed_8/join", "mixed_9/tower_1/conv/Conv2D_weights", "mixed_9/tower_1/conv/Conv2D_bn_offset"], "device": "/device:CPU:0", "attr": {"num_args": {"i": "1"}, "epsilon": {"f": 0.0}, "T": {"type": "DT_FLOAT"}, "strides": {"list": {"i": ["1", "1", "1", "1"]}}, "dilations": {"list": {"i": ["1", "1", "1", "1"]}}, "padding": {"s": "U0FNRQ=="}, "explicit_paddings": {"list": {}}, "use_cudnn_on_gpu": {"b": true}, "data_format": {"s": "TkhXQw=="}, "fused_ops": {"list": {"s": ["Qmlhc0FkZA==", "UmVsdQ=="]}}}}, {"name": "mixed_9/tower_2/conv/batchnorm", "op": "_FusedConv2D", "input": ["mixed_9/tower_2/pool", "mixed_9/tower_2/conv/Conv2D_weights", "mixed_9/tower_2/conv/Conv2D_bn_offset"], "device": "/device:CPU:0", "attr": {"fused_ops": {"list": {"s": ["Qmlhc0FkZA=="]}}, "use_cudnn_on_gpu": {"b": true}, "num_args": {"i": "1"}, "epsilon": {"f": 0.0}, "T": {"type": "DT_FLOAT"}, "strides": {"list": {"i": ["1", "1", "1", "1"]}}, "dilations": {"list": {"i": ["1", "1", "1", "1"]}}, "explicit_paddings": {"list": {}}, "padding": {"s": "U0FNRQ=="}, "data_format": {"s": "TkhXQw=="}}}, {"name": "mixed_9/tower/mixed/conv/batchnorm", "op": "_FusedConv2D", "input": ["mixed_9/tower/conv", "mixed_9/tower/mixed/conv/Conv2D_weights", "mixed_9/tower/mixed/conv/Conv2D_bn_offset"], "device": "/device:CPU:0", "attr": {"T": {"type": "DT_FLOAT"}, "padding": {"s": "U0FNRQ=="}, "epsilon": {"f": 0.0}, "fused_ops": {"list": {"s": ["Qmlhc0FkZA=="]}}, "num_args": {"i": "1"}, "dilations": {"list": {"i": ["1", "1", "1", "1"]}}, "strides": {"list": {"i": ["1", "1", "1", "1"]}}, "data_format": {"s": "TkhXQw=="}, "explicit_paddings": {"list": {}}, "use_cudnn_on_gpu": {"b": true}}}, {"name": "mixed_9/tower/mixed/conv_1/batchnorm", "op": "_FusedConv2D", "input": ["mixed_9/tower/conv", "mixed_9/tower/mixed/conv_1/Conv2D_weights", "mixed_9/tower/mixed/conv_1/Conv2D_bn_offset"], "device": "/device:CPU:0", "attr": {"fused_ops": {"list": {"s": ["Qmlhc0FkZA=="]}}, "use_cudnn_on_gpu": {"b": true}, "num_args": {"i": "1"}, "epsilon": {"f": 0.0}, "T": {"type": "DT_FLOAT"}, "strides": {"list": {"i": ["1", "1", "1", "1"]}}, "dilations": {"list": {"i": ["1", "1", "1", "1"]}}, "explicit_paddings": {"list": {}}, "padding": {"s": "U0FNRQ=="}, "data_format": {"s": "TkhXQw=="}}}, {"name": "mixed_9/tower_1/conv_1", "op": "_FusedConv2D", "input": ["mixed_9/tower_1/conv", "mixed_9/tower_1/conv_1/Conv2D_weights", "mixed_9/tower_1/conv_1/Conv2D_bn_offset"], "device": "/device:CPU:0", "attr": {"padding": {"s": "U0FNRQ=="}, "num_args": {"i": "1"}, "epsilon": {"f": 0.0}, "strides": {"list": {"i": ["1", "1", "1", "1"]}}, "fused_ops": {"list": {"s": ["Qmlhc0FkZA==", "UmVsdQ=="]}}, "dilations": {"list": {"i": ["1", "1", "1", "1"]}}, "explicit_paddings": {"list": {}}, "use_cudnn_on_gpu": {"b": true}, "data_format": {"s": "TkhXQw=="}, "T": {"type": "DT_FLOAT"}}}, {"name": "mixed_9/tower_1/mixed/conv/batchnorm", "op": "_FusedConv2D", "input": ["mixed_9/tower_1/conv_1", "mixed_9/tower_1/mixed/conv/Conv2D_weights", "mixed_9/tower_1/mixed/conv/Conv2D_bn_offset"], "device": "/device:CPU:0", "attr": {"fused_ops": {"list": {"s": ["Qmlhc0FkZA=="]}}, "use_cudnn_on_gpu": {"b": true}, "num_args": {"i": "1"}, "epsilon": {"f": 0.0}, "T": {"type": "DT_FLOAT"}, "strides": {"list": {"i": ["1", "1", "1", "1"]}}, "dilations": {"list": {"i": ["1", "1", "1", "1"]}}, "explicit_paddings": {"list": {}}, "padding": {"s": "U0FNRQ=="}, "data_format": {"s": "TkhXQw=="}}}, {"name": "mixed_9/tower_1/mixed/conv_1/batchnorm", "op": "_FusedConv2D", "input": ["mixed_9/tower_1/conv_1", "mixed_9/tower_1/mixed/conv_1/Conv2D_weights", "mixed_9/tower_1/mixed/conv_1/Conv2D_bn_offset"], "device": "/device:CPU:0", "attr": {"num_args": {"i": "1"}, "epsilon": {"f": 0.0}, "T": {"type": "DT_FLOAT"}, "strides": {"list": {"i": ["1", "1", "1", "1"]}}, "dilations": {"list": {"i": ["1", "1", "1", "1"]}}, "padding": {"s": "U0FNRQ=="}, "explicit_paddings": {"list": {}}, "use_cudnn_on_gpu": {"b": true}, "data_format": {"s": "TkhXQw=="}, "fused_ops": {"list": {"s": ["Qmlhc0FkZA=="]}}}}, {"name": "mixed_9/join", "op": "Concat", "input": ["mixed_9/join/concat_dim", "mixed_9/conv/batchnorm", "mixed_9/tower/mixed/conv/batchnorm", "mixed_9/tower/mixed/conv_1/batchnorm", "mixed_9/tower_1/mixed/conv/batchnorm", "mixed_9/tower_1/mixed/conv_1/batchnorm", "mixed_9/tower_2/conv/batchnorm"], "attr": {"T": {"type": "DT_FLOAT"}, "N": {"i": "6"}}}, {"name": "mixed_9/conv", "op": "Relu", "input": ["mixed_9/join"], "attr": {"T": {"type": "DT_FLOAT"}}}, {"name": "mixed_10/conv/batchnorm", "op": "_FusedConv2D", "input": ["mixed_9/conv", "mixed_10/conv/Conv2D_weights", "mixed_10/conv/Conv2D_bn_offset"], "device": "/device:CPU:0", "attr": {"num_args": {"i": "1"}, "epsilon": {"f": 0.0}, "T": {"type": "DT_FLOAT"}, "strides": {"list": {"i": ["1", "1", "1", "1"]}}, "dilations": {"list": {"i": ["1", "1", "1", "1"]}}, "padding": {"s": "U0FNRQ=="}, "explicit_paddings": {"list": {}}, "use_cudnn_on_gpu": {"b": true}, "data_format": {"s": "TkhXQw=="}, "fused_ops": {"list": {"s": ["Qmlhc0FkZA=="]}}}}, {"name": "mixed_10/tower/conv", "op": "_FusedConv2D", "input": ["mixed_9/conv", "mixed_10/tower/conv/Conv2D_weights", "mixed_10/tower/conv/Conv2D_bn_offset"], "device": "/device:CPU:0", "attr": {"num_args": {"i": "1"}, "epsilon": {"f": 0.0}, "T": {"type": "DT_FLOAT"}, "strides": {"list": {"i": ["1", "1", "1", "1"]}}, "dilations": {"list": {"i": ["1", "1", "1", "1"]}}, "padding": {"s": "U0FNRQ=="}, "explicit_paddings": {"list": {}}, "use_cudnn_on_gpu": {"b": true}, "data_format": {"s": "TkhXQw=="}, "fused_ops": {"list": {"s": ["Qmlhc0FkZA==", "UmVsdQ=="]}}}}, {"name": "mixed_10/tower_1/conv", "op": "_FusedConv2D", "input": ["mixed_9/conv", "mixed_10/tower_1/conv/Conv2D_weights", "mixed_10/tower_1/conv/Conv2D_bn_offset"], "device": "/device:CPU:0", "attr": {"fused_ops": {"list": {"s": ["Qmlhc0FkZA==", "UmVsdQ=="]}}, "use_cudnn_on_gpu": {"b": true}, "num_args": {"i": "1"}, "epsilon": {"f": 0.0}, "T": {"type": "DT_FLOAT"}, "strides": {"list": {"i": ["1", "1", "1", "1"]}}, "dilations": {"list": {"i": ["1", "1", "1", "1"]}}, "explicit_paddings": {"list": {}}, "padding": {"s": "U0FNRQ=="}, "data_format": {"s": "TkhXQw=="}}}, {"name": "mixed_10/tower_2/pool", "op": "MaxPool", "input": ["mixed_9/conv"], "attr": {"T": {"type": "DT_FLOAT"}, "strides": {"list": {"i": ["1", "1", "1", "1"]}}, "padding": {"s": "U0FNRQ=="}, "explicit_paddings": {"list": {}}, "data_format": {"s": "TkhXQw=="}, "ksize": {"list": {"i": ["1", "3", "3", "1"]}}}}, {"name": "mixed_10/tower/mixed/conv/batchnorm", "op": "_FusedConv2D", "input": ["mixed_10/tower/conv", "mixed_10/tower/mixed/conv/Conv2D_weights", "mixed_10/tower/mixed/conv/Conv2D_bn_offset"], "device": "/device:CPU:0", "attr": {"num_args": {"i": "1"}, "epsilon": {"f": 0.0}, "T": {"type": "DT_FLOAT"}, "strides": {"list": {"i": ["1", "1", "1", "1"]}}, "dilations": {"list": {"i": ["1", "1", "1", "1"]}}, "padding": {"s": "U0FNRQ=="}, "explicit_paddings": {"list": {}}, "use_cudnn_on_gpu": {"b": true}, "data_format": {"s": "TkhXQw=="}, "fused_ops": {"list": {"s": ["Qmlhc0FkZA=="]}}}}, {"name": "mixed_10/tower/mixed/conv_1/batchnorm", "op": "_FusedConv2D", "input": ["mixed_10/tower/conv", "mixed_10/tower/mixed/conv_1/Conv2D_weights", "mixed_10/tower/mixed/conv_1/Conv2D_bn_offset"], "device": "/device:CPU:0", "attr": {"num_args": {"i": "1"}, "epsilon": {"f": 0.0}, "T": {"type": "DT_FLOAT"}, "strides": {"list": {"i": ["1", "1", "1", "1"]}}, "dilations": {"list": {"i": ["1", "1", "1", "1"]}}, "padding": {"s": "U0FNRQ=="}, "explicit_paddings": {"list": {}}, "use_cudnn_on_gpu": {"b": true}, "data_format": {"s": "TkhXQw=="}, "fused_ops": {"list": {"s": ["Qmlhc0FkZA=="]}}}}, {"name": "mixed_10/tower_1/conv_1", "op": "_FusedConv2D", "input": ["mixed_10/tower_1/conv", "mixed_10/tower_1/conv_1/Conv2D_weights", "mixed_10/tower_1/conv_1/Conv2D_bn_offset"], "device": "/device:CPU:0", "attr": {"num_args": {"i": "1"}, "epsilon": {"f": 0.0}, "T": {"type": "DT_FLOAT"}, "strides": {"list": {"i": ["1", "1", "1", "1"]}}, "dilations": {"list": {"i": ["1", "1", "1", "1"]}}, "padding": {"s": "U0FNRQ=="}, "explicit_paddings": {"list": {}}, "use_cudnn_on_gpu": {"b": true}, "data_format": {"s": "TkhXQw=="}, "fused_ops": {"list": {"s": ["Qmlhc0FkZA==", "UmVsdQ=="]}}}}, {"name": "mixed_10/tower_2/conv/batchnorm", "op": "_FusedConv2D", "input": ["mixed_10/tower_2/pool", "mixed_10/tower_2/conv/Conv2D_weights", "mixed_10/tower_2/conv/Conv2D_bn_offset"], "device": "/device:CPU:0", "attr": {"fused_ops": {"list": {"s": ["Qmlhc0FkZA=="]}}, "use_cudnn_on_gpu": {"b": true}, "num_args": {"i": "1"}, "epsilon": {"f": 0.0}, "T": {"type": "DT_FLOAT"}, "strides": {"list": {"i": ["1", "1", "1", "1"]}}, "dilations": {"list": {"i": ["1", "1", "1", "1"]}}, "explicit_paddings": {"list": {}}, "padding": {"s": "U0FNRQ=="}, "data_format": {"s": "TkhXQw=="}}}, {"name": "mixed_10/tower_1/mixed/conv_1/batchnorm", "op": "_FusedConv2D", "input": ["mixed_10/tower_1/conv_1", "mixed_10/tower_1/mixed/conv_1/Conv2D_weights", "mixed_10/tower_1/mixed/conv_1/Conv2D_bn_offset"], "device": "/device:CPU:0", "attr": {"fused_ops": {"list": {"s": ["Qmlhc0FkZA=="]}}, "use_cudnn_on_gpu": {"b": true}, "num_args": {"i": "1"}, "epsilon": {"f": 0.0}, "T": {"type": "DT_FLOAT"}, "strides": {"list": {"i": ["1", "1", "1", "1"]}}, "dilations": {"list": {"i": ["1", "1", "1", "1"]}}, "explicit_paddings": {"list": {}}, "padding": {"s": "U0FNRQ=="}, "data_format": {"s": "TkhXQw=="}}}, {"name": "mixed_10/tower_1/mixed/conv/batchnorm", "op": "_FusedConv2D", "input": ["mixed_10/tower_1/conv_1", "mixed_10/tower_1/mixed/conv/Conv2D_weights", "mixed_10/tower_1/mixed/conv/Conv2D_bn_offset"], "device": "/device:CPU:0", "attr": {"fused_ops": {"list": {"s": ["Qmlhc0FkZA=="]}}, "use_cudnn_on_gpu": {"b": true}, "num_args": {"i": "1"}, "epsilon": {"f": 0.0}, "T": {"type": "DT_FLOAT"}, "strides": {"list": {"i": ["1", "1", "1", "1"]}}, "dilations": {"list": {"i": ["1", "1", "1", "1"]}}, "explicit_paddings": {"list": {}}, "padding": {"s": "U0FNRQ=="}, "data_format": {"s": "TkhXQw=="}}}, {"name": "mixed_10/join", "op": "Concat", "input": ["mixed_10/join/concat_dim", "mixed_10/conv/batchnorm", "mixed_10/tower/mixed/conv/batchnorm", "mixed_10/tower/mixed/conv_1/batchnorm", "mixed_10/tower_1/mixed/conv/batchnorm", "mixed_10/tower_1/mixed/conv_1/batchnorm", "mixed_10/tower_2/conv/batchnorm"], "attr": {"T": {"type": "DT_FLOAT"}, "N": {"i": "6"}}}, {"name": "mixed_10/conv", "op": "Relu", "input": ["mixed_10/join"], "attr": {"T": {"type": "DT_FLOAT"}}}, {"name": "pool_3", "op": "AvgPool", "input": ["mixed_10/conv"], "attr": {"data_format": {"s": "TkhXQw=="}, "T": {"type": "DT_FLOAT"}, "ksize": {"list": {"i": ["1", "8", "8", "1"]}}, "strides": {"list": {"i": ["1", "1", "1", "1"]}}, "padding": {"s": "VkFMSUQ="}}}, {"name": "pool_3/_reshape", "op": "Reshape", "input": ["pool_3", "pool_3/_reshape/shape"], "attr": {"T": {"type": "DT_FLOAT"}, "Tshape": {"type": "DT_INT32"}}}, {"name": "input/BottleneckInputPlaceholder", "op": "PlaceholderWithDefault", "input": ["pool_3/_reshape"], "attr": {"dtype": {"type": "DT_FLOAT"}, "shape": {"shape": {"dim": [{"size": "-1"}, {"size": "2048"}]}}}}, {"name": "final_training_ops/Wx_plus_b/MatMul", "op": "MatMul", "input": ["input/BottleneckInputPlaceholder", "final_training_ops/weights/final_weights"], "device": "/device:CPU:0", "attr": {"T": {"type": "DT_FLOAT"}, "transpose_b": {"b": false}, "transpose_a": {"b": false}}}, {"name": "final_training_ops/Wx_plus_b/add", "op": "AddV2", "input": ["final_training_ops/Wx_plus_b/MatMul", "final_training_ops/biases/final_biases"], "attr": {"T": {"type": "DT_FLOAT"}}}, {"name": "final_result", "op": "Softmax", "input": ["final_training_ops/Wx_plus_b/add"], "attr": {"T": {"type": "DT_FLOAT"}}}], "library": {}, "versions": {}}, "weightsManifest": [{"paths": ["group1-shard1of21.bin", "group1-shard2of21.bin", "group1-shard3of21.bin", "group1-shard4of21.bin", "group1-shard5of21.bin", "group1-shard6of21.bin", "group1-shard7of21.bin", "group1-shard8of21.bin", "group1-shard9of21.bin", "group1-shard10of21.bin", "group1-shard11of21.bin", "group1-shard12of21.bin", "group1-shard13of21.bin", "group1-shard14of21.bin", "group1-shard15of21.bin", "group1-shard16of21.bin", "group1-shard17of21.bin", "group1-shard18of21.bin", "group1-shard19of21.bin", "group1-shard20of21.bin", "group1-shard21of21.bin"], "weights": [{"name": "mixed_10/join/concat_dim", "shape": [], "dtype": "int32"}, {"name": "mixed_9/join/concat_dim", "shape": [], "dtype": "int32"}, {"name": "mixed_8/join/concat_dim", "shape": [], "dtype": "int32"}, {"name": "mixed_7/join/concat_dim", "shape": [], "dtype": "int32"}, {"name": "mixed_6/join/concat_dim", "shape": [], "dtype": "int32"}, {"name": "mixed_5/join/concat_dim", "shape": [], "dtype": "int32"}, {"name": "mixed_4/join/concat_dim", "shape": [], "dtype": "int32"}, {"name": "mixed_3/join/concat_dim", "shape": [], "dtype": "int32"}, {"name": "mixed_2/join/concat_dim", "shape": [], "dtype": "int32"}, {"name": "mixed_1/join/concat_dim", "shape": [], "dtype": "int32"}, {"name": "mixed/join/concat_dim", "shape": [], "dtype": "int32"}, {"name": "DecodeJpeg/contents", "shape": [], "dtype": "string"}, {"name": "ExpandDims/dim", "shape": [1], "dtype": "int32"}, {"name": "ResizeBilinear/size", "shape": [2], "dtype": "int32"}, {"name": "Sub/y", "shape": [], "dtype": "float32"}, {"name": "pool_3/_reshape/shape", "shape": [2], "dtype": "int32"}, {"name": "final_training_ops/weights/final_weights", "shape": [2048, 2], "dtype": "float32"}, {"name": "final_training_ops/biases/final_biases", "shape": [2], "dtype": "float32"}, {"name": "conv/Conv2D_weights", "shape": [3, 3, 3, 32], "dtype": "float32"}, {"name": "conv/Conv2D_bn_offset", "shape": [32], "dtype": "float32"}, {"name": "mixed_7/tower_1/conv_1/Conv2D_bn_offset", "shape": [192], "dtype": "float32"}, {"name": "conv_1/Conv2D_weights", "shape": [3, 3, 32, 32], "dtype": "float32"}, {"name": "mixed_10/tower/conv/Conv2D_weights", "shape": [1, 1, 2048, 384], "dtype": "float32"}, {"name": "conv_1/Conv2D_bn_offset", "shape": [32], "dtype": "float32"}, {"name": "conv_2/Conv2D_weights", "shape": [3, 3, 32, 64], "dtype": "float32"}, {"name": "mixed_7/tower/conv_2/Conv2D_weights", "shape": [7, 1, 192, 192], "dtype": "float32"}, {"name": "conv_2/Conv2D_bn_offset", "shape": [64], "dtype": "float32"}, {"name": "conv_3/Conv2D_weights", "shape": [1, 1, 64, 80], "dtype": "float32"}, {"name": "conv_3/Conv2D_bn_offset", "shape": [80], "dtype": "float32"}, {"name": "mixed_7/tower/conv_2/Conv2D_bn_offset", "shape": [192], "dtype": "float32"}, {"name": "conv_4/Conv2D_weights", "shape": [3, 3, 80, 192], "dtype": "float32"}, {"name": "conv_4/Conv2D_bn_offset", "shape": [192], "dtype": "float32"}, {"name": "mixed/conv/Conv2D_weights", "shape": [1, 1, 192, 64], "dtype": "float32"}, {"name": "mixed_7/tower_1/conv_2/Conv2D_weights", "shape": [1, 7, 192, 192], "dtype": "float32"}, {"name": "mixed/conv/Conv2D_bn_offset", "shape": [64], "dtype": "float32"}, {"name": "mixed/tower/conv/Conv2D_weights", "shape": [1, 1, 192, 48], "dtype": "float32"}, {"name": "mixed_10/tower/conv/Conv2D_bn_offset", "shape": [384], "dtype": "float32"}, {"name": "mixed/tower/conv/Conv2D_bn_offset", "shape": [48], "dtype": "float32"}, {"name": "mixed_7/tower_1/conv_2/Conv2D_bn_offset", "shape": [192], "dtype": "float32"}, {"name": "mixed/tower_1/conv/Conv2D_weights", "shape": [1, 1, 192, 64], "dtype": "float32"}, {"name": "mixed_10/tower_1/mixed/conv_1/Conv2D_bn_offset", "shape": [384], "dtype": "float32"}, {"name": "mixed/tower_1/conv/Conv2D_bn_offset", "shape": [64], "dtype": "float32"}, {"name": "mixed/tower_2/conv/Conv2D_weights", "shape": [1, 1, 192, 32], "dtype": "float32"}, {"name": "mixed_7/tower_1/conv_3/Conv2D_weights", "shape": [7, 1, 192, 192], "dtype": "float32"}, {"name": "mixed/tower_2/conv/Conv2D_bn_offset", "shape": [32], "dtype": "float32"}, {"name": "mixed/tower/conv_1/Conv2D_weights", "shape": [5, 5, 48, 64], "dtype": "float32"}, {"name": "mixed/tower/conv_1/Conv2D_bn_offset", "shape": [64], "dtype": "float32"}, {"name": "mixed/tower_1/conv_1/Conv2D_weights", "shape": [3, 3, 64, 96], "dtype": "float32"}, {"name": "mixed_7/tower_1/conv_3/Conv2D_bn_offset", "shape": [192], "dtype": "float32"}, {"name": "mixed/tower_1/conv_1/Conv2D_bn_offset", "shape": [96], "dtype": "float32"}, {"name": "mixed_10/tower_1/conv/Conv2D_weights", "shape": [1, 1, 2048, 448], "dtype": "float32"}, {"name": "mixed/tower_1/conv_2/Conv2D_weights", "shape": [3, 3, 96, 96], "dtype": "float32"}, {"name": "mixed/tower_1/conv_2/Conv2D_bn_offset", "shape": [96], "dtype": "float32"}, {"name": "mixed_1/conv/Conv2D_weights", "shape": [1, 1, 256, 64], "dtype": "float32"}, {"name": "mixed_7/tower_1/conv_4/Conv2D_weights", "shape": [1, 7, 192, 192], "dtype": "float32"}, {"name": "mixed_1/conv/Conv2D_bn_offset", "shape": [64], "dtype": "float32"}, {"name": "mixed_1/tower/conv/Conv2D_weights", "shape": [1, 1, 256, 48], "dtype": "float32"}, {"name": "mixed_1/tower/conv/Conv2D_bn_offset", "shape": [48], "dtype": "float32"}, {"name": "mixed_7/tower_1/conv_4/Conv2D_bn_offset", "shape": [192], "dtype": "float32"}, {"name": "mixed_1/tower_1/conv/Conv2D_weights", "shape": [1, 1, 256, 64], "dtype": "float32"}, {"name": "mixed_1/tower_1/conv/Conv2D_bn_offset", "shape": [64], "dtype": "float32"}, {"name": "mixed_1/tower_2/conv/Conv2D_weights", "shape": [1, 1, 256, 64], "dtype": "float32"}, {"name": "mixed_1/tower_2/conv/Conv2D_bn_offset", "shape": [64], "dtype": "float32"}, {"name": "mixed_1/tower/conv_1/Conv2D_weights", "shape": [5, 5, 48, 64], "dtype": "float32"}, {"name": "mixed_1/tower/conv_1/Conv2D_bn_offset", "shape": [64], "dtype": "float32"}, {"name": "mixed_1/tower_1/conv_1/Conv2D_weights", "shape": [3, 3, 64, 96], "dtype": "float32"}, {"name": "mixed_8/tower/conv/Conv2D_weights", "shape": [1, 1, 768, 192], "dtype": "float32"}, {"name": "mixed_1/tower_1/conv_1/Conv2D_bn_offset", "shape": [96], "dtype": "float32"}, {"name": "mixed_10/tower_1/conv/Conv2D_bn_offset", "shape": [448], "dtype": "float32"}, {"name": "mixed_1/tower_1/conv_2/Conv2D_weights", "shape": [3, 3, 96, 96], "dtype": "float32"}, {"name": "mixed_8/tower/conv/Conv2D_bn_offset", "shape": [192], "dtype": "float32"}, {"name": "mixed_1/tower_1/conv_2/Conv2D_bn_offset", "shape": [96], "dtype": "float32"}, {"name": "mixed_2/conv/Conv2D_weights", "shape": [1, 1, 288, 64], "dtype": "float32"}, {"name": "mixed_2/conv/Conv2D_bn_offset", "shape": [64], "dtype": "float32"}, {"name": "mixed_2/tower/conv/Conv2D_weights", "shape": [1, 1, 288, 48], "dtype": "float32"}, {"name": "mixed_2/tower/conv/Conv2D_bn_offset", "shape": [48], "dtype": "float32"}, {"name": "mixed_8/tower_1/conv/Conv2D_weights", "shape": [1, 1, 768, 192], "dtype": "float32"}, {"name": "mixed_2/tower_1/conv/Conv2D_weights", "shape": [1, 1, 288, 64], "dtype": "float32"}, {"name": "mixed_2/tower_1/conv/Conv2D_bn_offset", "shape": [64], "dtype": "float32"}, {"name": "mixed_8/tower_1/conv/Conv2D_bn_offset", "shape": [192], "dtype": "float32"}, {"name": "mixed_2/tower_2/conv/Conv2D_weights", "shape": [1, 1, 288, 64], "dtype": "float32"}, {"name": "mixed_10/tower_2/conv/Conv2D_weights", "shape": [1, 1, 2048, 192], "dtype": "float32"}, {"name": "mixed_2/tower_2/conv/Conv2D_bn_offset", "shape": [64], "dtype": "float32"}, {"name": "mixed_2/tower/conv_1/Conv2D_weights", "shape": [5, 5, 48, 64], "dtype": "float32"}, {"name": "mixed_2/tower/conv_1/Conv2D_bn_offset", "shape": [64], "dtype": "float32"}, {"name": "mixed_2/tower_1/conv_1/Conv2D_weights", "shape": [3, 3, 64, 96], "dtype": "float32"}, {"name": "mixed_8/tower/conv_1/Conv2D_weights", "shape": [3, 3, 192, 320], "dtype": "float32"}, {"name": "mixed_2/tower_1/conv_1/Conv2D_bn_offset", "shape": [96], "dtype": "float32"}, {"name": "mixed_2/tower_1/conv_2/Conv2D_weights", "shape": [3, 3, 96, 96], "dtype": "float32"}, {"name": "mixed_8/tower/conv_1/Conv2D_bn_offset", "shape": [320], "dtype": "float32"}, {"name": "mixed_2/tower_1/conv_2/Conv2D_bn_offset", "shape": [96], "dtype": "float32"}, {"name": "mixed_3/conv/Conv2D_weights", "shape": [3, 3, 288, 384], "dtype": "float32"}, {"name": "mixed_10/tower_2/conv/Conv2D_bn_offset", "shape": [192], "dtype": "float32"}, {"name": "mixed_3/conv/Conv2D_bn_offset", "shape": [384], "dtype": "float32"}, {"name": "mixed_3/tower/conv/Conv2D_weights", "shape": [1, 1, 288, 64], "dtype": "float32"}, {"name": "mixed_8/tower_1/conv_1/Conv2D_weights", "shape": [1, 7, 192, 192], "dtype": "float32"}, {"name": "mixed_3/tower/conv/Conv2D_bn_offset", "shape": [64], "dtype": "float32"}, {"name": "mixed_3/tower/conv_1/Conv2D_weights", "shape": [3, 3, 64, 96], "dtype": "float32"}, {"name": "mixed_8/tower_1/conv_1/Conv2D_bn_offset", "shape": [192], "dtype": "float32"}, {"name": "mixed_3/tower/conv_1/Conv2D_bn_offset", "shape": [96], "dtype": "float32"}, {"name": "mixed_10/tower/mixed/conv/Conv2D_weights", "shape": [1, 3, 384, 384], "dtype": "float32"}, {"name": "mixed_3/tower/conv_2/Conv2D_weights", "shape": [3, 3, 96, 96], "dtype": "float32"}, {"name": "mixed_3/tower/conv_2/Conv2D_bn_offset", "shape": [96], "dtype": "float32"}, {"name": "mixed_8/tower_1/conv_2/Conv2D_weights", "shape": [7, 1, 192, 192], "dtype": "float32"}, {"name": "mixed_4/conv/Conv2D_weights", "shape": [1, 1, 768, 192], "dtype": "float32"}, {"name": "mixed_4/conv/Conv2D_bn_offset", "shape": [192], "dtype": "float32"}, {"name": "mixed_4/tower/conv/Conv2D_weights", "shape": [1, 1, 768, 128], "dtype": "float32"}, {"name": "mixed_8/tower_1/conv_2/Conv2D_bn_offset", "shape": [192], "dtype": "float32"}, {"name": "mixed_4/tower/conv/Conv2D_bn_offset", "shape": [128], "dtype": "float32"}, {"name": "mixed_10/tower/mixed/conv/Conv2D_bn_offset", "shape": [384], "dtype": "float32"}, {"name": "mixed_4/tower_1/conv/Conv2D_weights", "shape": [1, 1, 768, 128], "dtype": "float32"}, {"name": "mixed_4/tower_1/conv/Conv2D_bn_offset", "shape": [128], "dtype": "float32"}, {"name": "mixed_8/tower_1/conv_3/Conv2D_weights", "shape": [3, 3, 192, 192], "dtype": "float32"}, {"name": "mixed_4/tower_2/conv/Conv2D_weights", "shape": [1, 1, 768, 192], "dtype": "float32"}, {"name": "mixed_4/tower_2/conv/Conv2D_bn_offset", "shape": [192], "dtype": "float32"}, {"name": "mixed_4/tower/conv_1/Conv2D_weights", "shape": [1, 7, 128, 128], "dtype": "float32"}, {"name": "mixed_8/tower_1/conv_3/Conv2D_bn_offset", "shape": [192], "dtype": "float32"}, {"name": "mixed_4/tower/conv_1/Conv2D_bn_offset", "shape": [128], "dtype": "float32"}, {"name": "mixed_10/tower/mixed/conv_1/Conv2D_weights", "shape": [3, 1, 384, 384], "dtype": "float32"}, {"name": "mixed_4/tower_1/conv_1/Conv2D_weights", "shape": [7, 1, 128, 128], "dtype": "float32"}, {"name": "mixed_4/tower_1/conv_1/Conv2D_bn_offset", "shape": [128], "dtype": "float32"}, {"name": "mixed_4/tower/conv_2/Conv2D_weights", "shape": [7, 1, 128, 192], "dtype": "float32"}, {"name": "mixed_4/tower/conv_2/Conv2D_bn_offset", "shape": [192], "dtype": "float32"}, {"name": "mixed_4/tower_1/conv_2/Conv2D_weights", "shape": [1, 7, 128, 128], "dtype": "float32"}, {"name": "mixed_9/conv/Conv2D_weights", "shape": [1, 1, 1280, 320], "dtype": "float32"}, {"name": "mixed_4/tower_1/conv_2/Conv2D_bn_offset", "shape": [128], "dtype": "float32"}, {"name": "mixed_4/tower_1/conv_3/Conv2D_weights", "shape": [7, 1, 128, 128], "dtype": "float32"}, {"name": "mixed_9/conv/Conv2D_bn_offset", "shape": [320], "dtype": "float32"}, {"name": "mixed_4/tower_1/conv_3/Conv2D_bn_offset", "shape": [128], "dtype": "float32"}, {"name": "mixed_4/tower_1/conv_4/Conv2D_weights", "shape": [1, 7, 128, 192], "dtype": "float32"}, {"name": "mixed_9/tower/conv/Conv2D_weights", "shape": [1, 1, 1280, 384], "dtype": "float32"}, {"name": "mixed_4/tower_1/conv_4/Conv2D_bn_offset", "shape": [192], "dtype": "float32"}, {"name": "mixed_5/conv/Conv2D_weights", "shape": [1, 1, 768, 192], "dtype": "float32"}, {"name": "mixed_10/tower/mixed/conv_1/Conv2D_bn_offset", "shape": [384], "dtype": "float32"}, {"name": "mixed_5/conv/Conv2D_bn_offset", "shape": [192], "dtype": "float32"}, {"name": "mixed_5/tower/conv/Conv2D_weights", "shape": [1, 1, 768, 160], "dtype": "float32"}, {"name": "mixed_9/tower/conv/Conv2D_bn_offset", "shape": [384], "dtype": "float32"}, {"name": "mixed_5/tower/conv/Conv2D_bn_offset", "shape": [160], "dtype": "float32"}, {"name": "mixed_5/tower_1/conv/Conv2D_weights", "shape": [1, 1, 768, 160], "dtype": "float32"}, {"name": "mixed_5/tower_1/conv/Conv2D_bn_offset", "shape": [160], "dtype": "float32"}, {"name": "mixed_9/tower_1/conv/Conv2D_weights", "shape": [1, 1, 1280, 448], "dtype": "float32"}, {"name": "mixed_5/tower_2/conv/Conv2D_weights", "shape": [1, 1, 768, 192], "dtype": "float32"}, {"name": "mixed_10/tower_1/conv_1/Conv2D_weights", "shape": [3, 3, 448, 384], "dtype": "float32"}, {"name": "mixed_5/tower_2/conv/Conv2D_bn_offset", "shape": [192], "dtype": "float32"}, {"name": "mixed_5/tower/conv_1/Conv2D_weights", "shape": [1, 7, 160, 160], "dtype": "float32"}, {"name": "mixed_9/tower_1/conv/Conv2D_bn_offset", "shape": [448], "dtype": "float32"}, {"name": "mixed_5/tower/conv_1/Conv2D_bn_offset", "shape": [160], "dtype": "float32"}, {"name": "mixed_5/tower_1/conv_1/Conv2D_weights", "shape": [7, 1, 160, 160], "dtype": "float32"}, {"name": "mixed_5/tower_1/conv_1/Conv2D_bn_offset", "shape": [160], "dtype": "float32"}, {"name": "mixed_9/tower_2/conv/Conv2D_weights", "shape": [1, 1, 1280, 192], "dtype": "float32"}, {"name": "mixed_5/tower/conv_2/Conv2D_weights", "shape": [7, 1, 160, 192], "dtype": "float32"}, {"name": "mixed_10/tower_1/conv_1/Conv2D_bn_offset", "shape": [384], "dtype": "float32"}, {"name": "mixed_5/tower/conv_2/Conv2D_bn_offset", "shape": [192], "dtype": "float32"}, {"name": "mixed_5/tower_1/conv_2/Conv2D_weights", "shape": [1, 7, 160, 160], "dtype": "float32"}, {"name": "mixed_9/tower_2/conv/Conv2D_bn_offset", "shape": [192], "dtype": "float32"}, {"name": "mixed_5/tower_1/conv_2/Conv2D_bn_offset", "shape": [160], "dtype": "float32"}, {"name": "mixed_5/tower_1/conv_3/Conv2D_weights", "shape": [7, 1, 160, 160], "dtype": "float32"}, {"name": "mixed_9/tower/mixed/conv/Conv2D_weights", "shape": [1, 3, 384, 384], "dtype": "float32"}, {"name": "mixed_5/tower_1/conv_3/Conv2D_bn_offset", "shape": [160], "dtype": "float32"}, {"name": "mixed_5/tower_1/conv_4/Conv2D_weights", "shape": [1, 7, 160, 192], "dtype": "float32"}, {"name": "mixed_9/tower/mixed/conv/Conv2D_bn_offset", "shape": [384], "dtype": "float32"}, {"name": "mixed_5/tower_1/conv_4/Conv2D_bn_offset", "shape": [192], "dtype": "float32"}, {"name": "mixed_6/conv/Conv2D_weights", "shape": [1, 1, 768, 192], "dtype": "float32"}, {"name": "mixed_6/conv/Conv2D_bn_offset", "shape": [192], "dtype": "float32"}, {"name": "mixed_6/tower/conv/Conv2D_weights", "shape": [1, 1, 768, 160], "dtype": "float32"}, {"name": "mixed_9/tower/mixed/conv_1/Conv2D_weights", "shape": [3, 1, 384, 384], "dtype": "float32"}, {"name": "mixed_6/tower/conv/Conv2D_bn_offset", "shape": [160], "dtype": "float32"}, {"name": "mixed_6/tower_1/conv/Conv2D_weights", "shape": [1, 1, 768, 160], "dtype": "float32"}, {"name": "mixed_9/tower/mixed/conv_1/Conv2D_bn_offset", "shape": [384], "dtype": "float32"}, {"name": "mixed_6/tower_1/conv/Conv2D_bn_offset", "shape": [160], "dtype": "float32"}, {"name": "mixed_6/tower_2/conv/Conv2D_weights", "shape": [1, 1, 768, 192], "dtype": "float32"}, {"name": "mixed_9/tower_1/conv_1/Conv2D_weights", "shape": [3, 3, 448, 384], "dtype": "float32"}, {"name": "mixed_6/tower_2/conv/Conv2D_bn_offset", "shape": [192], "dtype": "float32"}, {"name": "mixed_6/tower/conv_1/Conv2D_weights", "shape": [1, 7, 160, 160], "dtype": "float32"}, {"name": "mixed_10/tower_1/mixed/conv/Conv2D_weights", "shape": [1, 3, 384, 384], "dtype": "float32"}, {"name": "mixed_6/tower/conv_1/Conv2D_bn_offset", "shape": [160], "dtype": "float32"}, {"name": "mixed_9/tower_1/conv_1/Conv2D_bn_offset", "shape": [384], "dtype": "float32"}, {"name": "mixed_6/tower_1/conv_1/Conv2D_weights", "shape": [7, 1, 160, 160], "dtype": "float32"}, {"name": "mixed_6/tower_1/conv_1/Conv2D_bn_offset", "shape": [160], "dtype": "float32"}, {"name": "mixed_6/tower/conv_2/Conv2D_weights", "shape": [7, 1, 160, 192], "dtype": "float32"}, {"name": "mixed_9/tower_1/mixed/conv/Conv2D_weights", "shape": [1, 3, 384, 384], "dtype": "float32"}, {"name": "mixed_6/tower/conv_2/Conv2D_bn_offset", "shape": [192], "dtype": "float32"}, {"name": "mixed_6/tower_1/conv_2/Conv2D_weights", "shape": [1, 7, 160, 160], "dtype": "float32"}, {"name": "mixed_10/tower_1/mixed/conv/Conv2D_bn_offset", "shape": [384], "dtype": "float32"}, {"name": "mixed_6/tower_1/conv_2/Conv2D_bn_offset", "shape": [160], "dtype": "float32"}, {"name": "mixed_9/tower_1/mixed/conv/Conv2D_bn_offset", "shape": [384], "dtype": "float32"}, {"name": "mixed_6/tower_1/conv_3/Conv2D_weights", "shape": [7, 1, 160, 160], "dtype": "float32"}, {"name": "mixed_6/tower_1/conv_3/Conv2D_bn_offset", "shape": [160], "dtype": "float32"}, {"name": "mixed_9/tower_1/mixed/conv_1/Conv2D_weights", "shape": [3, 1, 384, 384], "dtype": "float32"}, {"name": "mixed_6/tower_1/conv_4/Conv2D_weights", "shape": [1, 7, 160, 192], "dtype": "float32"}, {"name": "mixed_6/tower_1/conv_4/Conv2D_bn_offset", "shape": [192], "dtype": "float32"}, {"name": "mixed_7/conv/Conv2D_weights", "shape": [1, 1, 768, 192], "dtype": "float32"}, {"name": "mixed_9/tower_1/mixed/conv_1/Conv2D_bn_offset", "shape": [384], "dtype": "float32"}, {"name": "mixed_7/conv/Conv2D_bn_offset", "shape": [192], "dtype": "float32"}, {"name": "mixed_7/tower/conv/Conv2D_weights", "shape": [1, 1, 768, 192], "dtype": "float32"}, {"name": "mixed_7/tower/conv/Conv2D_bn_offset", "shape": [192], "dtype": "float32"}, {"name": "mixed_7/tower_1/conv/Conv2D_weights", "shape": [1, 1, 768, 192], "dtype": "float32"}, {"name": "mixed_7/tower_1/conv/Conv2D_bn_offset", "shape": [192], "dtype": "float32"}, {"name": "mixed_7/tower_2/conv/Conv2D_weights", "shape": [1, 1, 768, 192], "dtype": "float32"}, {"name": "mixed_10/conv/Conv2D_weights", "shape": [1, 1, 2048, 320], "dtype": "float32"}, {"name": "mixed_7/tower_2/conv/Conv2D_bn_offset", "shape": [192], "dtype": "float32"}, {"name": "mixed_7/tower/conv_1/Conv2D_weights", "shape": [1, 7, 192, 192], "dtype": "float32"}, {"name": "mixed_10/tower_1/mixed/conv_1/Conv2D_weights", "shape": [3, 1, 384, 384], "dtype": "float32"}, {"name": "mixed_7/tower/conv_1/Conv2D_bn_offset", "shape": [192], "dtype": "float32"}, {"name": "mixed_10/conv/Conv2D_bn_offset", "shape": [320], "dtype": "float32"}, {"name": "mixed_7/tower_1/conv_1/Conv2D_weights", "shape": [7, 1, 192, 192], "dtype": "float32"}]}]}